female_name_generator.pt (torch, 355983 bytes, 11 tensors)

init_hidden.1.weight f4 [100, 58]
000000 01 9f 55 3e b7 fb c0 bf 13 0e ec 3d 87 fb 37 3e
       0.20861436 -1.5076817 0.11526122 0.17967044
000010 e2 11 f5 3d e4 d6 5e 3e ea 3f 59 3e 31 84 fc 3d
       0.119663015 0.21761662 0.21215788 0.12329901
000020 a9 37 26 3e 75 6b 19 3c 1b ac ba 3d 79 7f 0e 3e
       0.1623217 0.009363999 0.09114858 0.13915814
000030 04 12 b3 3d 8c 34 83 3c d3 f3 29 3d fc f5 db 3d
       0.087436706 0.016016267 0.041492295 0.10740277
000040 ba 87 0f 3e 16 f7 e2 3d 39 c7 54 3e f8 3a d7 bb
       0.1401662 0.11082284 0.20779122 -0.006568309
000050 72 89 36 3e 18 0e 39 3d 00 c3 5a 3e fb 29 27 3e
       0.17825869 0.045179456 0.21363449 0.16324608
000060 5f fb f0 3c cf 91 55 3e 72 dc 5b 3e 62 c7 1f 3d
       0.029416738 0.20856403 0.21470812 0.039008506
000070 ff 36 5f 3e 29 a8 45 3f 7c 81 af 3f 12 a4 2d 3f
       0.21798323 0.7720972 1.371139 0.67828476
000080 44 1e 77 3c 59 26 a1 3e 5b 36 01 3e c6 63 26 3d
       0.0150828995 0.3147457 0.12618391 0.040622495
000090 d0 09 07 bf 8b 11 eb 3d 02 7d 70 3e 6c 8f 20 3f
       -0.5274935 0.114779554 0.23485187 0.62718844
0000a0 1a 32 93 3f 73 00 85 3d 55 1f 92 3e 43 e1 ee be
       1.1499665 0.06494226 0.2853953 -0.46656236
0000b0 12 cd c0 3e cb 3b a5 be 8b 54 78 3e 2c bc 56 3d
       0.37656456 -0.3227218 0.24251 0.05242555
0000c0 77 26 e1 3d 52 c0 83 bf 81 85 2b 3f 52 9e 08 3e
       0.10993665 -1.0293067 0.67000586 0.13341644
0000d0 a8 6f 82 be 73 a7 13 be 1f 0e bc 3d 93 c7 42 3e
       -0.25475812 -0.14419346 0.09182381 0.19021444
0000e0 ba 7c 49 3e 32 85 5a 3e 38 3d 6b bd b0 1c 8e 3d
       0.19676486 0.21339872 -0.05743143 0.069390655
0000f0 8e bf f6 bd b4 5e 3d 3d b8 a9 6e 3d 5c 00 f1 bc
       -0.12048255 0.046232894 0.058267325 -0.029419117
000100 a4 be f7 3d a6 96 ec 3d ef 85 db bd c4 a3 82 3d
       0.12096909 0.115521714 -0.10718905 0.06378892
000110 78 75 52 3d 50 94 5c 3d 00 e0 8d b9 40 ca 0a 3b
       0.05138156 0.05385238 -0.0002706051 0.002117768
000120 76 aa 86 3d 18 ce a8 bc 1c 18 06 3e 18 65 95 3c
       0.065754816 -0.020606086 0.13095134 0.018236682
000130 80 68 1e bb 64 b2 03 bd 18 84 b7 3d bd 38 d3 bd
       -0.0024171174 -0.03215255 0.08960742 -0.10313556
000140 e7 44 e1 bd 04 57 a6 bd 88 b9 60 3d 21 ec ce bd
       -0.1099947 -0.08122066 0.054864436 -0.10103632
000150 08 05 13 bc 2c 20 31 3d dc 86 98 bc fe a3 b4 3d
       -0.0089733675 0.043243572 -0.018618993 0.088203415
000160 5e 3b be 3d e0 94 1f 3d 10 e2 12 bd 68 e2 83 3d
       0.09288667 0.038960338 -0.03586012 0.06439668
000170 21 93 db bd 60 d5 d6 3d 97 c2 a9 bd 58 8b df bd
       -0.10721422 0.10489917 -0.08289068 -0.109152496
000180 54 c4 3a 3d fc 4c 06 3e 30 e7 cb 3d 04 44 b5 3d
       0.04559739 0.13115305 0.09956205 0.088508636
000190 a9 88 f6 bd ba 16 0c bd 4a 69 db 3d ce f3 7f bd
       -0.120377846 -0.03420136 0.10713442 -0.06248837
0001a0 11 f4 be bd 1c be 9b 3d b0 3c 35 3d c0 25 1a 3d
       -0.09323896 0.0760462 0.04424733 0.037633657
0001b0 14 59 30 3d 9b 25 ae bd 20 18 37 3c fe 5a a6 3d
       0.0430537 -0.085032664 0.011175185 0.08122824
0001c0 ea 1d 91 3d 58 4b a1 3c e7 be d7 bd 70 d4 99 3d
       0.07085784 0.019689247 -0.105344586 0.07511222
0001d0 4a 5a df 3d ce ec 9c bd da b6 d7 bd 30 fb 74 bc
       0.10905893 -0.076623544 -0.10532923 -0.014952466
0001e0 00 b6 02 be e8 5f 22 bd a8 74 5c bd dc 74 86 bc
       -0.1276474 -0.039642245 -0.05382219 -0.016413145
0001f0 78 6b 5a bd 34 e9 ec bd f6 90 30 bd 82 49 e0 bd
       -0.053325146 -0.115679175 -0.043106996 -0.109515205
000200 f2 a1 8d 3d d8 e3 90 3c ec 4a cc bc 70 24 b0 bd
       0.06915654 0.01768677 -0.02493807 -0.086007
000210 ee 1d 02 bd 62 45 05 bd 16 74 be bd 60 19 36 3d
       -0.031766824 -0.03253687 -0.092994854 0.044457793
000220 3e f0 bd 3d a9 ae 98 bd 94 e5 c1 3d 3e 5a bf 3d
       0.09274338 -0.07455189 0.09467617 0.09343384
000230 13 dd ae bd ac fb b8 3d 4e 2b ad 3d 80 94 06 3d
       -0.0853826 0.090323776 0.08455525 0.032856464
000240 60 f1 ae bb 54 bf f6 3d 5c 32 71 3d 36 b5 79 bd
       -0.0053388327 0.12048212 0.058885917 -0.06096383
000250 c6 40 8d bd 34 7c 2d 3d 00 88 89 bd 76 31 ef 3d
       -0.0689712 0.042354777 -0.06715393 0.11679356
000260 30 56 93 3c 10 55 59 bd 18 58 0f bc 31 bc 81 bd
       0.017985433 -0.053059638 -0.0087490305 -0.06334723
000270 48 f4 35 3d e0 56 35 3c 54 d3 64 3d fc 6b 05 3d
       0.044422418 0.011068076 0.0558656 0.032573685
000280 54 8b 4c 3d e0 aa 11 3d f0 f6 a7 3c d0 10 91 3d
       0.04993756 0.03556335 0.020503491 0.07083285
000290 f8 0d 93 3d c0 2a b6 bb e0 a8 9f 3c a2 41 c9 bd
       0.07180399 -0.0055592954 0.019489706 -0.098269716
0002a0 38 51 9b 3c 88 fb dd bd 11 b0 f3 bd a4 a5 e4 3d
       0.018959627 -0.108389914 -0.118988164 0.11164406
0002b0 30 ab 2b 3c a0 fe e6 3b 60 5e 31 3c 60 fc a8 bb
       0.010477826 0.0070493966 0.010825723 -0.0051570386
0002c0 b0 df cc 3d c3 72 e1 bd 26 65 d5 bd 50 64 24 3c
       0.100036025 -0.11008217 -0.10419683 0.010033682
0002d0 b2 60 6f bd 18 a2 1b 3d c4 b6 a4 bc 94 86 da bc
       -0.058441825 0.03799638 -0.02010668 -0.0266755
0002e0 4c 92 1a 3d 76 ce 1b bd 34 fd 46 bd 54 f2 28 3d
       0.037737176 -0.038038693 -0.048581317 0.041246727
0002f0 ec ac ba 3d 04 29 c0 bd 64 47 b8 bd 00 e2 64 ba
       0.091150135 -0.09382823 -0.08997992 -0.00087311864
000300 94 26 f3 bc ec 90 ee bc 40 cc 2a 3d 20 94 87 bb
       -0.029681481 -0.029121839 0.041698694 -0.004137531
000310 aa 6c 7b bd 9a ce eb bd ac e3 f5 3d fa 51 52 bd
       -0.061382927 -0.115140155 0.120063156 -0.05134771
000320 18 e6 dc 3d 1c 86 94 bd b4 7c e8 bd 54 9d 85 bc
       0.107860744 -0.07252142 -0.1135191 -0.016310371
000330 0c f8 a6 3d d8 c4 75 bd 38 f3 13 bc 50 12 71 3c
       0.0815278 -0.060002178 -0.009030156 0.014713839
000340 f8 05 8d 3c 98 1d 93 3c e8 6c 62 bc 28 e2 9e 3d
       0.01721476 0.017958447 -0.013819911 0.0775798
000350 80 2e 23 bc 68 8c fc 3d 50 36 2a 3c 86 d1 9e bd
       -0.009959817 0.12331468 0.010388926 -0.07754807
000360 7e 84 a4 3d d4 20 71 bd c0 91 5e 3c f0 78 d8 bd
       0.080330834 -0.058869198 0.013584554 -0.10569942
000370 7c ad d0 bd 70 24 9c bd 3c 1a ae bc 90 33 37 bc
       -0.101893395 -0.076241374 -0.021252744 -0.011181727
000380 ee 94 ec bd 78 d3 bb bc 9a 43 0c bd 90 7e c6 3d
       -0.115518436 -0.022927985 -0.034244157 0.09692109
000390 b6 6b 5e bd 52 d3 80 bd 46 e5 ee 3d f4 74 a4 3d
       -0.05430194 -0.06290306 0.11664824 0.080301195
0003a0 08 7d 79 bd 00 98 d3 3d c0 52 49 3b b6 ad cd bd
       -0.060910255 0.10331726 0.003071949 -0.10042898
0003b0 0e 58 1d bd 4e ae c9 bd 4b f3 d8 bd 48 36 ec 3c
       -0.038414054 -0.09847699 -0.105932795 0.028834477
0003c0 2a 04 ec bd d6 44 df 3d f6 9d bb 3d ca c1 d7 bd
       -0.11524232 0.10901801 0.09160988 -0.10535009
0003d0 80 ae 17 3c 2c fa 7f bd 70 88 2f 3c 3c 80 30 3d
       0.009257913 -0.062494442 0.010713682 0.043091044
0003e0 58 80 93 bd e6 db 47 bd f1 a2 ac bd 40 cf 4c bd
       -0.07202214 -0.048793696 -0.08429516 -0.050002337
0003f0 4c af 64 3d b8 ec 30 bc ec 69 55 3d 60 84 60 3c
       0.05583124 -0.010798626 0.052102968 0.013703436

init_hidden.1.bias f4 [100]
000000 6f 87 18 3e a6 29 92 bd 80 e7 23 bc 21 3b db bd
       0.14895414 -0.0713685 -0.010003924 -0.10704637
000010 93 10 bb bd 4a 2a 89 3e 9b 08 0d 3e 12 8c 40 3e
       -0.09134021 0.26790076 0.13772814 0.18803433
000020 5d fa bc bd 52 0c a6 bd f8 48 4b 3e 8e 25 fe bd
       -0.092274405 -0.08107819 0.19852054 -0.12409507
000030 45 20 11 3e 8c 6e a9 bd 88 83 f7 bd 55 83 73 3e
       0.14172466 -0.08273038 -0.120856345 0.23780568
000040 b0 62 a0 bd c4 5e 13 3e 98 4b df bd 7e 07 04 bd
       -0.07831323 0.14391619 -0.1090309 -0.032233708
000050 05 8f e4 bd 3c 0a 59 bd 4d 59 aa 3d be e2 c7 bd
       -0.11160091 -0.052988276 0.08317814 -0.097600445
000060 5f ce 5e 3e 86 19 f4 3d bc f3 94 3e c3 4f 1b 3e
       0.21758412 0.11918931 0.29092205 0.15167145
000070 52 86 0c bd 57 df b2 3e 00 7b f4 3d ed 35 02 be
       -0.034307785 0.3493602 0.11937523 -0.12715884
000080 78 5a 4c bc 70 df 72 bc c4 e9 bb bd c4 10 ac 3e
       -0.012472741 -0.014823779 -0.09175447 0.3360654
000090 9e d6 9d bd f8 2c ec bc 25 a2 cd 3d d3 a0 03 3f
       -0.077069506 -0.028830037 0.10040692 0.51417273
0000a0 bf e5 6c 3e dc 7c 12 bd 98 bd 14 3e c0 be 1d 3e
       0.23134516 -0.035763606 0.1452545 0.15404797
0000b0 92 ad 4c bd 1e 7f 8d 3e 76 6c c1 3e 12 ca b7 bd
       -0.049970217 0.27636045 0.37778062 -0.08974089
0000c0 75 e5 ef bd 79 5a e6 3d 0e 58 01 be 16 ea 2b 3e
       -0.11713687 0.11247725 -0.12631246 0.16788515
0000d0 3e de dd bd d8 54 3b 3e 14 09 92 3e 86 82 65 bd
       -0.10833405 0.18294084 0.2852255 -0.05603268
0000e0 be 14 c2 3e 3c 5d b0 bc fe c6 fb bd a0 cc e6 3b
       0.3790645 -0.021528833 -0.12293814 0.007043436
0000f0 fb 58 1c 3e ab 23 24 3e 6e b3 87 3e 1c 9b ee 3e
       0.15268318 0.16029231 0.2650408 0.46602714
000100 0b 12 e8 bd a6 5b a3 bd 07 e1 05 be a3 13 fe bd
       -0.113315664 -0.07976465 -0.13074122 -0.12406089
000110 ec 16 98 3e 00 ec c8 bd 2e 10 90 3e 9c ca e3 bd
       0.29704988 -0.098106384 0.28137344 -0.11122629
000120 00 cc 12 b9 43 fc e6 bd 02 bd 19 bd dd a4 c5 3d
       -0.00013999641 -0.11278584 -0.037533768 0.09650586
000130 1c aa 8d 3e fe 2e 56 bd 4c 20 fc bc 9a 2a a0 3d
       0.27668846 -0.05229091 -0.03077712 0.078206256
000140 0e 1b b6 bd df 96 77 3c 79 03 88 3e e3 33 b5 3d
       -0.08891879 0.015111654 0.2656515 0.08847787
000150 fd e0 82 bd 6c 91 45 bd 28 72 ad bc e2 89 de 3d
       -0.06390569 -0.04823439 -0.021172598 0.10866143
000160 28 eb d8 3d 40 3f 51 3e ac 9b 80 bd 5a c7 37 3e
       0.105917275 0.20434284 -0.06279692 0.1794714
000170 d4 c1 bf 3d 07 61 95 3e 80 6d 20 3c 9e e9 e2 3d
       0.09363142 0.29175588 0.009791732 0.11079715
000180 96 28 5b bd a4 bd dc bd 0a c4 89 3d 45 12 9c 3e
       -0.053505503 -0.107783586 0.067268446 0.3048269

init_hidden.3.weight f4 [100, 100]
000000 cb 4c 33 3e 41 ad 90 3d a0 e7 69 bd bd c4 8c 3d
       0.17509763 0.070642956 -0.05710566 0.06873462
000010 a0 8e 0b bd 4d 50 3c 3e 3c de 2e be 81 19 d7 be
       -0.034071565 0.18390007 -0.17076963 -0.42011645
000020 a2 6b 7d 3d a0 83 95 3b a6 f5 53 3e 40 55 06 bb
       0.061870225 0.00456281 0.20699176 -0.002049759
000030 33 7a f8 3d a9 01 a1 3d 20 ef a1 bb 73 66 d3 bd
       0.12132683 0.07861645 -0.004941836 -0.10322275
000040 8c 63 fd bc 6a a4 d6 3d 3c 9d f8 3c 82 1f 13 3d
       -0.030931257 0.10480578 0.030348413 0.03591872
000050 57 2a 37 bd b9 7c bf 3d 78 63 a5 3e 90 05 21 3c
       -0.044718113 0.09349961 0.3230245 0.009827986
000060 3d 8c a7 3e 2c ea b7 be 69 75 66 be 4e e3 8b be
       0.3272418 -0.35920846 -0.22505726 -0.27321857
000070 85 81 85 bd 35 70 21 ba 89 9d 82 3e 1d b1 9b 3d
       -0.065188445 -0.0006158383 0.25510815 0.07602141
000080 c0 2a fa ba a2 b3 72 3d 4a de 60 3d 15 0c 81 be
       -0.0019086227 0.059253342 0.05489949 -0.2520453
000090 93 92 b0 3d cc fa 8d 3c a3 25 a3 bd 5a da a8 be
       0.08621707 0.017331503 -0.07966163 -0.3297909
0000a0 7a d4 df 3e 74 b6 f4 bc 60 c6 77 bd cc dc 3e 3e
       0.43716794 -0.029872157 -0.06049192 0.18638915
0000b0 78 60 be 3c af f3 4b 3e 99 89 65 be 63 1d 95 3d
       0.02323936 0.19917177 -0.2241577 0.07280996
0000c0 9b 35 a9 3d 9e f4 8c bd e8 37 73 3c 17 dd 31 be
       0.082621776 -0.068825945 0.014844872 -0.17369495
0000d0 be f0 24 3d 3c 41 10 3f 0c cd 7d 3d d0 c3 95 3b
       0.040268652 0.5634954 0.061963126 0.004570462
0000e0 c7 72 9d be 42 0b 5a 3d e3 80 bb 3d d7 f5 a3 3d
       -0.3075163 0.053233393 0.091554426 0.080058746
0000f0 52 78 fd be bd 43 f2 be 2b 7c ec bd 05 5c 3e 3e
       -0.4950586 -0.47317305 -0.11547121 0.1858979
000100 21 4e ac 3d 87 30 c5 bd 90 68 a2 bd ad 64 92 3d
       0.084133394 -0.096283965 -0.079301 0.07148109
000110 c3 b4 32 3d e0 c9 2a bd 5a b0 b9 3d e0 6e 8a bb
       0.04362942 -0.04169643 0.090668395 -0.004224643
000120 60 24 1a 3b ed 9a 28 bd d6 c3 4d 3d 38 0a e9 3e
       0.0023520216 -0.041163374 0.05023559 0.4551561
000130 95 d5 68 3d 18 98 b4 bc b3 07 99 bd e8 b1 e0 3e
       0.056844313 -0.02204518 -0.07472172 0.43885732
000140 00 de 6f bd cd 0c 02 40 71 2f b1 3d 99 da e8 be
       -0.058561325 2.0320313 0.08651627 -0.45479277
000150 80 c2 e5 bb 22 84 76 3d d6 51 a0 bd 03 88 17 3e
       -0.0070117116 0.060184605 -0.07828109 0.14797978
000160 87 77 7b 3e 10 a0 70 3e 02 a7 30 3d d1 9a f6 be
       0.24557315 0.23498559 0.04312802 -0.4816499
000170 97 1f bd 3e f7 52 74 3e 7a 9e 2a bd 8c d6 a8 bc
       0.36938164 0.23859774 -0.04165504 -0.020610116
000180 d9 df 85 3d f8 e7 b7 bc a6 ee 33 be 9e e8 9d bc
       0.06536836 -0.022449479 -0.17571506 -0.01927596
000190 74 3f b2 bd b2 70 13 3d 02 11 ba bd 96 08 3a 3d
       -0.08703509 0.035996147 -0.09085275 0.045418344
0001a0 c1 4f b6 3d d4 ea f9 3d 5a 33 16 be 41 6c 9a bd
       0.089019306 0.12202993 -0.14668027 -0.07540179
0001b0 7a 86 c1 bd 0a 41 bc bd 6f 9d b9 3e 24 15 06 bd
       -0.094494775 -0.09192093 0.36252925 -0.032735005
0001c0 14 5d f6 bd c0 2e 46 3b f3 f3 91 3d 4e e0 12 bd
       -0.12029472 0.0030240268 0.07126608 -0.035858445
0001d0 00 cf ba bd 28 81 ab bd 9f 42 c8 bd 39 e9 bd 3d
       -0.09121513 -0.08374244 -0.09778332 0.09272999
0001e0 01 3f 8b 3d a8 82 9e bc 4d fa 76 be ba b8 84 bd
       0.067991264 -0.019349411 -0.2411892 -0.06480546
0001f0 23 3d 97 3e a7 7c 85 be 51 09 a2 bd 25 69 2b be
       0.2953883 -0.26071665 -0.07911933 -0.16739328
000200 26 44 25 3d 26 61 12 3e e4 e8 e5 bb 86 2b 03 bd
       0.040348195 0.14294872 -0.007016288 -0.03202393
000210 c0 19 1e bd 16 10 3d 3d 73 30 78 bd 6a d3 e7 bd
       -0.038598776 0.04615792 -0.06059308 -0.11319621
000220 b0 bf 62 3c 2a 4b 5f 3d 40 a5 68 be c2 55 3f 3d
       0.013839647 0.05451504 -0.22719288 0.046712644
000230 b5 fd bb 3e 10 d1 0f 3c f1 65 24 be b7 39 a9 3d
       0.36717 0.008777872 -0.16054513 0.08262961
000240 a0 93 af 3b e4 e5 a9 3e cf 8a 73 bd 00 0b 55 3a
       0.0053581744 0.33183205 -0.05945855 0.00081269443
000250 0d fa 3f bd 4c 8c 95 be 50 00 6c 3c a3 da c7 bd
       -0.046869326 -0.292086 0.014404371 -0.097584985
000260 42 46 76 3d 7e 95 fd 3d 40 5a 0f 3e fe 37 1b 3d
       0.060125597 0.12382029 0.13999271 0.037895195
000270 e1 62 d9 bd 78 28 ec bc 36 f4 6f 3d af 2d ab 3d
       -0.10614563 -0.02882789 0.058582507 0.08358323
000280 a8 84 af be 69 2a 1c be fd ac 33 3c de 92 36 3e
       -0.34280896 -0.15250553 0.010966537 0.17829463
000290 57 c8 84 3d 9a f6 52 bd 70 8f 22 bd f0 45 28 3c
       0.06483524 -0.05150471 -0.039687574 0.010270581
0002a0 29 d2 a1 3e 9a 5d 37 bd 35 94 bf 3e cc 2d c2 bc
       0.31605652 -0.044767 0.3741776 -0.023703478
0002b0 dd f7 6c bd 7b 8d 94 3d 13 b1 39 bd 75 cf 37 3d
       -0.05785357 0.07253548 -0.045334887 0.04487558
0002c0 95 38 6d 3e 30 d5 55 bd 80 b5 bb bd 9d 90 8d bd
       0.23166116 -0.052205265 -0.09165478 -0.069123484
0002d0 91 8a 88 3d 35 26 cb 3e e2 81 f7 3c a7 8a 9c be
       0.066670544 0.39677587 0.0302133 -0.30574533
0002e0 0c dd 84 3c f7 21 ae bd c8 d9 91 bc 1c 5b 1c be
       0.016218685 -0.08502572 -0.017804042 -0.1526913
0002f0 7a b3 a0 be c7 d3 c3 bd 94 ba dc 3c 46 23 1b be
       -0.3138693 -0.09561878 0.026944436 -0.15150174
000300 09 81 9a bd 45 17 06 3e d6 5d 01 bd ca 5e 4a be
       -0.07544143 0.13094814 -0.03158363 -0.19762722
000310 28 bc bb bd 8d 1b c7 3d ec 6f d6 be cc 00 9b 3e
       -0.09166747 0.09722052 -0.41882265 0.30274045
000320 11 28 26 be 93 28 90 bd 78 b9 cf bc 46 0d 75 3d
       -0.16226222 -0.07038989 -0.025356993 0.05982711
000330 ea a8 1e 3d 66 15 9d 3c 8d 6d 33 be 9a 46 42 bd
       0.038735308 0.019175243 -0.17522259 -0.047430612
000340 24 5c ef 3c 80 77 bd bb 01 a3 23 3e 66 11 36 3d
       0.02921874 -0.005782068 0.1598015 0.044450186
000350 ac d4 05 be de 65 8e bd ac 81 17 bd 44 46 20 be
       -0.13069409 -0.069530234 -0.0369889 -0.15651804
000360 43 b3 9d bd 77 d2 98 be ea 94 30 3d 82 24 12 3d
       -0.07700207 -0.29848072 0.043110766 0.035679348
000370 88 07 d9 bc 8f eb c8 bd 86 ad c5 be cf ee c2 bd
       -0.026492849 -0.09810554 -0.3860895 -0.095182054
000380 58 3a 1b 3e 7c 71 42 be d4 ee 51 bd 79 7b 02 be
       0.15158975 -0.18988603 -0.051253155 -0.12742414
000390 74 28 df 3c c9 7b 0c 3e 23 20 98 be 23 4d 8b 3d
       0.02724097 0.13719095 -0.29712018 0.06801822
0003a0 20 bc a0 bc 78 b4 b9 bd 80 95 5f 3a 89 54 ff 3c
       -0.019620955 -0.09067625 0.0008529052 0.03116824
0003b0 c9 55 b1 3d 02 bf 1d 3d 0c aa 9c be f5 da 9e 3d
       0.0865894 0.038512237 -0.30598485 0.077566065
0003c0 5f 1c 65 3e 72 96 02 3d fe 77 66 be cc 6e 8d bd
       0.22374104 0.031881757 -0.22506711 -0.069058985
0003d0 de 99 63 3d 99 21 b1 3e 08 07 96 bd ab bf 9f bd
       0.05556666 0.34595945 -0.0732556 -0.0780023
0003e0 2e b8 11 3d f6 dc cd be 62 2d 5b 3d 17 ad 3a be
       0.035576038 -0.40207642 0.053510077 -0.18230091
0003f0 00 7d 4b bc d8 03 0b be 30 37 0f 3d e3 d2 7d bd
       -0.012419939 -0.13575685 0.03496474 -0.061968695

init_hidden.3.bias f4 [100]
000000 cf ea c9 bd 67 ab 54 3d 47 48 3c 3e 4e 9c 8c bd
       -0.09859239 0.051921275 0.18386947 -0.0686575
000010 8d 43 6e 3d 62 0f 91 ba aa 35 40 3e 6c 6e dd bd
       0.05816989 -0.0011067207 0.18770471 -0.10812077
000020 c6 43 9f bd 9c ba 60 3d ee bb bf bc a4 7a 05 be
       -0.07776599 0.054865465 -0.023405042 -0.13035065
000030 45 9c ba 3d aa 97 b3 3d ff 28 5a be 21 15 85 3e
       0.09111837 0.08769162 -0.21304701 0.25992683
000040 b7 da 7b 3d fe 7b 4a be c0 32 01 3e 9e 4a 49 be
       0.06148788 -0.19773862 0.12617016 -0.1965737
000050 06 06 21 bc 3a a3 ee 3d 05 31 55 3e b2 51 48 3e
       -0.009828096 0.11652227 0.2081948 0.19562414
000060 43 ee f2 bc 00 8a 1c bd fa a1 20 be ed 4b 37 3e
       -0.029654628 -0.038217545 -0.15686789 0.17900057
000070 28 73 16 bc d7 02 c1 bc 7a cc 97 3d c1 ac 23 bd
       -0.009182729 -0.023560924 0.07412048 -0.039959673
000080 3e c4 e5 bd 58 f2 6d bd 77 ab 2b bd 44 83 10 3e
       -0.11219071 -0.058092445 -0.04191157 0.14112574
000090 29 26 04 bd 6c d1 ac bc 13 37 88 3c b7 86 23 be
       -0.032262955 -0.021095954 0.016627824 -0.15969358
0000a0 7d 82 11 bd ac 15 03 be 99 6a 00 be 07 10 27 3e
       -0.035524834 -0.12801236 -0.12540664 0.16314708
0000b0 95 47 02 3d c2 58 44 3e eb 0c 16 be 9c f8 01 3d
       0.031806547 0.19174483 -0.14653365 0.031731233
0000c0 c9 58 80 be f6 42 a0 be 7b 69 b1 bc 10 6f 43 3e
       -0.25067738 -0.31301087 -0.021656742 0.19085336
0000d0 eb 5a 6f be 0a a4 41 be 77 92 b1 bc e6 cc 43 be
       -0.23374526 -0.18910232 -0.021676285 -0.19121131
0000e0 2a e9 6b 3e 86 3c 2c 3e 7c 58 0a 3d 11 72 1c 3e
       0.23038164 0.16819963 0.03377579 0.15277888
0000f0 90 07 73 3d 0c 7f 83 3d e8 57 f2 3c 4a e5 96 3e
       0.059333384 0.06420717 0.029582933 0.2947181
000100 35 40 82 be 2c d6 85 3d 37 23 ad bc 86 38 bd bb
       -0.2543961 0.06534991 -0.021134956 -0.0057745604
000110 cd 80 7e bd 10 4f 14 be d4 92 c9 3d df 3d 47 be
       -0.062134553 -0.14483285 0.09842458 -0.19457196
000120 bd af c0 3d 0d b0 29 be 73 63 89 3d 6e d4 b4 bd
       0.094085194 -0.16571064 0.067084216 -0.0882958
000130 c3 89 b6 3d ef dc 1d bd 29 aa 52 be d4 28 a8 bd
       0.08912995 -0.038540777 -0.20572723 -0.08210912
000140 2c c1 49 3e 5c 09 06 bc b2 01 0c be e3 9c 2d bd
       0.19702595 -0.008180942 -0.13672522 -0.042385947
000150 69 a5 19 be 42 c2 81 bb f1 a7 50 be 2f 19 7a 3e
       -0.15004505 -0.003959925 -0.20376565 0.2442367
000160 06 08 67 bd cb 61 80 be a3 79 37 3d a7 8e 21 bc
       -0.056404136 -0.2507461 0.044793736 -0.009860671
000170 e5 52 47 be ed c8 88 be d6 97 19 3e d4 c4 18 3e
       -0.19465216 -0.26715794 0.14999327 0.14918834
000180 13 0e c1 3d 12 fa 87 bc 9b 45 7b 3c 1a 07 e2 3d
       0.094265126 -0.016598735 0.015336419 0.11036511

embed_layer.weight f4 [58, 100]
000000 2c 37 d4 3f 65 b3 28 3e 9d 05 20 3f c5 d9 13 3f
       1.6579337 0.16474684 0.62508565 0.57754165
000010 b7 89 9d bb 1c 12 44 bd b4 16 67 bf d5 e5 f2 bf
       -0.0048076767 -0.047868833 -0.9026902 -1.8976389
000020 bc 66 16 bf dd 87 0d bf 75 f9 98 3f 0c 54 7a 3f
       -0.5875051 -0.55285436 1.1951128 0.97784495
000030 4a d1 9c 3f 8f 72 4e bf 18 d4 8c 3f 4d 67 5f bd
       1.225137 -0.8064355 1.1002226 -0.054541875
000040 51 06 bb bd 1e a2 ad bf 70 65 9b bf 79 bb 50 3f
       -0.09132064 -1.3565099 -1.2140331 0.8153606
000050 e3 fd 02 40 21 0a 41 3f 35 32 c9 be 31 a7 f1 bf
       2.046746 0.7540608 -0.39296117 -1.8879148
000060 81 2c ea 3d 8e fb 17 be 21 0b bc be b7 cc 8c 3e
       0.1143427 -0.14842054 -0.3672724 0.27499935
000070 ce 4d a6 3f b8 85 83 3e a9 fc 10 bf cf 7d 2e 3d
       1.2992494 0.25687957 -0.5663553 0.04260045
000080 ba de 74 bf 26 11 51 bf 34 08 39 3f 86 e8 36 bd
       -0.95652354 -0.8166679 0.7227814 -0.044655345
000090 5b 83 bb 3e 70 3b a1 bf 67 07 43 bf f6 29 ec 3f
       0.36623654 -1.2596264 -0.7618317 1.8450305
0000a0 36 f7 de bf d5 ad 86 bd 13 ff fe 3f 16 af 8f 3e
       -1.7419193 -0.065761246 1.9921592 0.28063267
0000b0 c7 3e 82 bf 6e 44 11 c0 e0 6d 5f 3f dc 2c 0b 40
       -1.0175408 -2.2698016 0.8727703 2.174613
0000c0 b9 35 ca 3e 9d 89 45 bf 54 ef 87 bf 40 61 0f 3e
       0.39494112 -0.77163106 -1.0619912 0.14001942
0000d0 5f 6d a4 3f b9 b2 0f bf 31 cd 41 bd 55 09 e2 3e
       1.2845877 -0.56132084 -0.047314826 0.44147745
0000e0 fb 5f 1f be 92 27 d9 3f d9 26 b4 3f 67 ef 2e be
       -0.15563957 1.6965201 1.4074355 -0.17083512
0000f0 e7 b8 be 3f ac 33 fe 3e c3 26 86 be bb 3f a2 3f
       1.4900178 0.49648798 -0.26201448 1.2675699
000100 b8 6d 93 bd 49 99 3b bf 59 0d dd 3f 92 3e b7 be
       -0.071986616 -0.7328077 1.7269698 -0.35789925
000110 3a 6c ca bd 12 41 64 3f f7 8b 31 3f 99 e6 8d 3e
       -0.09883924 0.8916179 0.69354194 0.27714995
000120 40 85 0c 3e e7 c9 51 bf 42 99 98 3f 1e 39 6b 3f
       0.13722706 -0.81948704 1.192177 0.9188403
000130 36 52 c4 3f 13 73 48 3d 4a fe 72 bf b4 b9 3c 3f
       1.5337589 0.04893787 -0.94919264 0.7372086
000140 d8 90 17 bf 43 37 a1 3f 4d 8a db bf 58 5a cc 3d
       -0.5920539 1.259499 -1.7151581 0.09978169
000150 82 72 3e bf 98 f5 ea be f9 6a eb 3f a9 3a 86 3f
       -0.74393475 -0.45890498 1.839202 1.0486652
000160 f0 03 9a 3d 87 17 a2 3f 6e ad 06 40 ce b6 e2 3f
       0.07520282 1.266343 2.1043353 1.7712038
000170 54 38 53 3e bc d6 81 bf e8 9a bf 3e 94 e1 95 bf
       0.20626956 -1.0143657 0.37422872 -1.1709466
000180 f1 88 1a 3f 4f 9f da 3e 16 75 42 be 26 46 b0 3e
       0.60365206 0.42699668 -0.18989977 0.3442852
000190 9a ca 61 3f 69 ea 9a be 73 b3 d9 bf 16 53 ff 3e
       0.8819977 -0.30256966 -1.7007889 0.49868077
0001a0 64 32 18 c0 ba 95 4d 3f 25 40 94 bd 5f 04 a0 bd
       -2.3780756 0.8030659 -0.07238797 -0.07813334
0001b0 b4 d5 16 3f 21 dc 70 3f 7a cc 38 be cf 9e 28 40
       0.58919835 0.9408589 -0.18046752 2.634693
0001c0 81 13 0d be 46 13 24 bf de 2d 95 3f 42 27 5d 3e
       -0.13776971 -0.6409191 1.1654623 0.21597007
0001d0 4d 01 4d 3f 25 99 c0 be b6 54 d1 be 79 04 87 3f
       0.8008011 -0.3761684 -0.40884942 1.054824
0001e0 15 c7 8e bd f9 18 f0 3f d1 44 ea 3f f0 47 22 3f
       -0.06971566 1.8757621 1.8302251 0.6339102
0001f0 e3 01 07 3f 21 66 33 bf 0c 2b 13 3f e9 2f f0 3f
       0.52737254 -0.7007771 0.5748756 1.8764621
000200 6c 9a fe 3d e6 6a ac bf e4 7e db be 18 5a 37 bf
       0.124317974 -1.3470123 -0.42870247 -0.7162185
000210 d4 4a 85 3f 0b fc 96 bf 16 12 9e 3f f8 c7 e6 be
       1.0413461 -1.1795667 1.2349269 -0.4507444
000220 9a 40 a5 3d d1 1c ae be 14 96 70 3f 41 46 04 3f
       0.080689624 -0.3400636 0.93979 0.516697
000230 54 ee 26 3d ab b0 af bf 7e c7 02 3f 99 39 91 bf
       0.04075463 -1.372579 0.5108565 -1.1345702
000240 fa 1e fc be 5e 19 88 bd a6 d2 05 c0 ba cf e5 3e
       -0.49242383 -0.066454634 -2.090982 0.44885045
000250 5b e8 e7 bf 01 f9 bd 3f 12 c4 f1 3f 63 05 42 be
       -1.8117784 1.4841615 1.8887961 -0.18947367
000260 3c 15 35 be f5 66 9b 3f c8 ac a1 be 69 c6 8e bb
       -0.17683882 1.2140795 -0.31577134 -0.0043571484
000270 e2 a4 b4 3f 47 0f 83 bf 28 0d bd 3f 0f 8d 25 3e
       1.4112818 -1.0239037 1.476964 0.16167091
000280 83 73 0d bf 86 ed a7 bf fb 6f 20 3f a5 2c 78 3f
       -0.5525438 -1.3119361 0.6267087 0.9694312
000290 85 c0 28 3f 8c db f4 bf 71 75 cf 3f 44 9e b3 3e
       0.6591876 -1.91295 1.6207715 0.35081685
0002a0 d2 be 49 bf 43 e5 a2 3f ef d3 3c be dd 44 f9 3f
       -0.78806794 1.2726215 -0.18440221 1.947414
0002b0 e6 0b 82 bf 86 fd be 3e 38 f3 14 3f 3f 74 dc 3e
       -1.0159881 0.37302798 0.5818362 0.4305744
0002c0 4e b6 2a 3e 28 f0 ba 3f 0d 42 0a 3f e4 db ac 3d
       0.16671106 1.460454 0.54007035 0.08440378
0002d0 9e fb 02 bf 63 b9 27 bf 54 20 85 3f e9 68 cb bf
       -0.5116519 -0.6551725 1.0400491 -1.5891391
0002e0 3b 48 a0 be fc 4f 11 3d b1 1c 3b 3f d3 9b ce 3f
       -0.31305107 0.03547667 0.73090655 1.6141304
0002f0 e7 c3 a9 3f 0e 79 b0 be 6b db f1 be 84 c9 f6 bf
       1.326291 -0.34467357 -0.47237715 -1.9280248
000300 a5 8b 74 3f 24 ff 86 bf 84 64 25 bf 44 cf 35 3f
       0.9552558 -1.0546613 -0.646065 0.7101939
000310 be f0 3c be 89 7d c4 bf f7 f3 ef bd be 4d 55 bd
       -0.18451211 -1.535081 -0.117164545 -0.052076094
000320 60 e2 e8 bf e9 76 43 bf 67 66 3f 3f 38 75 54 3e
       -1.8194084 -0.7635332 0.7476563 0.2074784
000330 8a 4c cb bf 5c 8e 33 40 fe ca 73 3f ca d4 97 3e
       -1.5882733 2.805564 0.95231616 0.29654533
000340 f1 ae e1 bf 70 a0 33 bf 26 d2 80 bf ed 38 c2 bf
       -1.7631513 -0.70166683 -1.0064132 -1.5173622
000350 b2 29 01 40 5f b9 b3 3d 9d ef 1d bf 0e c4 be 3f
       2.0181699 0.08775591 -0.61693746 1.4903581
000360 c3 8b 4b 40 50 d0 ab be 97 73 23 3f c6 12 28 40
       3.1804054 -0.33557367 0.6384825 2.6261458
000370 9b 3f 04 bf 04 b0 1e 3f f0 85 23 be 68 a6 68 bf
       -0.51659554 0.6198733 -0.15969062 -0.90878916
000380 f5 90 d2 3f 4f 01 90 3f 2c d3 6d 3e f5 95 0c bf
       1.6450487 1.1250399 0.23225087 -0.54916316
000390 74 fc de bf dd c5 2b bd 83 61 85 3f da 9c ae bf
       -1.7420793 -0.041936744 1.0420383 -1.3641617
0003a0 1b 76 67 3f dc 12 de bd e9 28 bf bf 30 71 1d bf
       0.9041459 -0.10843441 -1.493436 -0.61500835
0003b0 dc 56 86 3e 12 07 d7 bf 93 6a be be 33 98 b5 be
       0.26238143 -1.6799033 -0.37190685 -0.3546768
0003c0 b9 cf d6 3f 21 a6 8e 3e 94 3d b5 3d e6 dc b3 bf
       1.6782142 0.2786112 0.08849636 -1.4051788
0003d0 d0 1e 1c 3e 7f 52 b8 3f f7 2b 0e 3f 7c 2c e4 3f
       0.15246129 1.4400176 0.55535835 1.7826076
0003e0 99 ff 67 3f c1 67 16 bf bb 0a 95 bf d3 80 3d 3f
       0.90624386 -0.58752066 -1.16439 0.74024695
0003f0 5f c6 26 3f c4 9d 81 bf 5a e3 9b 3f 45 a0 49 40
       0.6514644 -1.0126271 1.2178757 3.150407

rnn.weight_ih_l0 f4 [300, 100]
000000 cc 19 54 bd 20 ea 49 bd a5 29 99 bd 57 7e ca 3c
       -0.051782414 -0.049295545 -0.07478646 0.024718447
000010 3d ac cf bd c4 a6 05 bc af 14 9a bd 9b 1c 9d bd
       -0.10140274 -0.008157436 -0.07523476 -0.07671472
000020 58 49 8a bd de 06 fa 3c 04 53 5e bd 7d 43 05 3e
       -0.067522705 0.030520853 -0.05427839 0.13014026
000030 a0 78 18 be ed ed db bd a1 dc cc 3d 1b ed 7b 3d
       -0.14889765 -0.1073874 0.10003019 0.06150542
000040 a9 c1 0c 3d c4 36 6e bc aa be 88 bd d3 90 77 bd
       0.034364376 -0.014539424 -0.06676991 -0.06044085
000050 cf de 7d 3d 68 4e e1 bc 9e 55 9a 3d 30 a8 e6 3c
       0.061980065 -0.027503207 0.075358614 0.02815637
000060 60 af 6d 3e 7e 46 0c be db b5 99 bd 22 40 cf 3d
       0.23211432 -0.13698766 -0.07505389 0.10119654
000070 be be e3 3d 9c 28 45 bd 31 c9 6c bb 51 ec 5a bd
       0.111203656 -0.04813443 -0.0036130662 -0.053448025
000080 f6 68 1b bc 66 36 79 3c e4 8d 26 be 0c b3 bb 3d
       -0.009485474 0.0152107235 -0.16265064 0.0916501
000090 aa eb d7 bd aa b7 57 3d b3 5d fd 3d 7d 71 4f 3d
       -0.10542996 0.05266539 0.12371387 0.05064534
0000a0 00 3d 2f 3d 63 74 1a 3e 7e 8d b1 3d 26 c5 ab 3d
       0.042782784 0.1508346 0.086695656 0.083872125
0000b0 55 cb 38 3d 3c ac 20 3e b8 0a 78 3d 1c 30 07 be
       0.045115788 0.15690702 0.060557097 -0.13201946
0000c0 f6 9c 8a bd 7b 7e 11 3d 93 0f b8 3d 90 65 09 be
       -0.06768219 0.03552101 0.089873455 -0.1341765
0000d0 07 e9 67 bd d9 4e a5 bb 36 49 f0 3c 53 0d 8e 3d
       -0.056618717 -0.0050447998 0.029331785 0.06936135
0000e0 bd e3 51 bd cc eb 3e be 54 a6 2b be 7e 9d 44 bc
       -0.05124258 -0.18644637 -0.16762668 -0.01200044
0000f0 e0 a7 ef bc a2 94 b2 3d e3 79 d7 bc 9c d8 c6 3d
       -0.029254854 0.08719756 -0.026303237 0.09709284
000100 7a 38 f0 bd 12 65 40 bd 21 cd 84 bd 5e f9 18 3e
       -0.11729522 -0.04697139 -0.06484438 0.14938876
000110 17 14 30 3e 1a 77 8b bd 1d 57 ce 3c 36 7c 80 bd
       0.17195164 -0.06809826 0.025188023 -0.06273691
000120 8d 57 23 3e cf 3e 6c 3d 3f aa f8 3c 88 bd 9a bc
       0.15951367 0.057677086 0.030354617 -0.018889204
000130 f4 92 c9 bd 7c be bb 3b a9 76 1a be 28 b3 8b bd
       -0.09842482 0.0057294946 -0.15084328 -0.06821281
000140 18 0f 9b 3d 7e 34 01 be 46 8b 18 3e 91 ed 40 be
       0.07571238 -0.1261768 0.14896879 -0.18840624
000150 3a 5c 8e bd b0 b0 46 3d f3 f0 94 bd 88 a6 ff ba
       -0.069511846 0.048508346 -0.0727252 -0.0019504586
000160 3e 9e ce 3d 7b c6 83 3d d1 db c1 3c 45 02 fc 3b
       0.10088776 0.064343415 0.023664387 0.0076907002
000170 32 59 f1 bd 7e 23 8a bd 2e 86 27 3e a4 20 03 3d
       -0.11784591 -0.06745051 0.16359779 0.03201355
000180 c5 94 c6 bc 3b 6e c1 3d d0 72 4f 3d 24 93 06 be
       -0.02424086 0.09444853 0.050646603 -0.13142067
000190 e6 b0 d3 3d d8 bc de bd 22 68 51 3e 70 d9 01 3e
       0.10336475 -0.10875863 0.2044988 0.12680602
0001a0 8e 08 c1 3d 06 ee 41 be ba 56 a2 3d 0a b3 19 be
       0.0942546 -0.18938455 0.07926698 -0.15009704
0001b0 a7 d7 0c 3e 18 08 cf 3d f9 71 be bd 02 02 12 be
       0.1375414 0.10108966 -0.09299082 -0.14258578
0001c0 c2 2f 66 3d 0d 43 68 bd fd de 5d bd c6 39 7b bd
       0.05619789 -0.05670457 -0.054167736 -0.061334394
0001d0 44 c5 d6 bd 55 58 9a 3e 8d c6 00 be f4 50 7c 3d
       -0.10486844 0.30145517 -0.12575741 0.06160064
0001e0 26 25 24 bd 20 e0 1c be 6f fd 64 bd 55 88 78 be
       -0.04007449 -0.15319872 -0.055905756 -0.24270757
0001f0 d3 81 47 bd a4 02 1a be 6b cd 6b bd 95 66 c4 3c
       -0.048707794 -0.1504007 -0.05756895 0.023974696
000200 a4 50 18 3d ef 03 79 3d 2f 9a ad 3d e5 b3 1e 3e
       0.03718628 0.060794767 0.08476674 0.15498312
000210 27 26 bc bd 68 7c 9d 3d 39 cf 4e bd 05 0a 4c 3e
       -0.091869645 0.07689744 -0.05049059 0.19925697
000220 76 94 0f be 68 4b ba 3d 67 dc 25 3e ba 3d da bb
       -0.14021477 0.09096414 0.16197358 -0.0066601904
000230 0a 75 2f be ba be 1b 3e 13 16 b2 bd 7f 9d 07 be
       -0.1713449 0.15209475 -0.086956166 -0.13243674
000240 e9 1c 2d 3e 1e a6 3a 3e 8f 7f e9 bd 9c b0 83 bc
       0.1690556 0.18227431 -0.11401283 -0.016075425
000250 db 3e 4c 3d 46 d8 8b 3d b2 29 ff 3d 8a a1 d4 be
       0.04986463 0.0682836 0.124591246 -0.41529495
000260 07 27 0b be 77 e9 fd 3d f2 33 d7 3c 9a 44 ad be
       -0.13589107 0.123980455 0.026269887 -0.338414
000270 a5 63 fc 3d c0 f4 28 be 31 c8 d5 bd 98 0e fc bc
       0.12323693 -0.16499615 -0.10438574 -0.030768678
000280 74 2d 31 3d ec b9 a9 bc 81 48 19 be 04 ee 14 3e
       0.043256238 -0.020718537 -0.14969064 0.14543921
000290 21 87 c6 3c 1d ae a8 39 7d 3a dd 3d c1 38 b3 3d
       0.024234356 0.00032173182 0.108021714 0.08751059
0002a0 81 9b 04 3c 88 79 76 bd dc 77 aa bd 40 dc 8f be
       0.008093716 -0.060174495 -0.083236426 -0.28097725
0002b0 32 39 01 3c 08 fe 35 bd 80 c3 de 3c 4e c9 94 3d
       0.007887172 -0.044431716 0.027192831 0.07264958
0002c0 d9 e8 26 bd 4a 88 e6 bc d4 71 41 bd f6 6a cd 3b
       -0.040749405 -0.02814116 -0.047227696 0.0062688543
0002d0 11 e5 b1 bd 4d 84 82 3d f5 df 58 bc 33 23 ac 3d
       -0.08686269 0.063728906 -0.013236989 0.08405151
0002e0 dd a0 d7 3d 4a ff 7f be d8 c2 ed 3c 0f 7a e3 3d
       0.10528729 -0.24999729 0.029023573 0.11107265
0002f0 0e e0 7f bd 8b f6 b0 bb 75 99 cc bc 1f fb 4e bd
       -0.062469535 -0.005400484 -0.024975518 -0.050532456
000300 ad 29 d3 bd c7 d1 27 3e 0d 07 3a 3e 6c cc 23 bc
       -0.103106834 0.16388617 0.18166752 -0.009997468
000310 2e 69 5d bd ea 2a b0 3d 8a 1d 58 be 31 0a 94 3e
       -0.054055385 0.08601935 -0.21105018 0.28914025
000320 70 16 d7 bd 1f 1a fe bd bd e4 fd bc b9 52 d4 3d
       -0.105023265 -0.12407326 -0.03099286 0.103673406
000330 a5 53 ba 3c ed 70 81 3c ba 0f 23 3e 0c 3d 93 bd
       0.022744963 0.015800918 0.15923968 -0.07189378
000340 26 36 6e bd e3 6d 10 be 05 47 35 be 2c 10 52 3d
       -0.05815711 -0.14104418 -0.17702873 0.051284954
000350 af f2 c3 bd 41 38 4e bd 26 f7 bc bd 19 95 e0 bd
       -0.095677726 -0.050346617 -0.09226827 -0.10965938
000360 15 65 0b 3e 24 b8 ba bd 73 4f c3 bc 7e 23 a6 3d
       0.13612778 -0.09117153 -0.023841595 0.08112238
000370 e9 f4 f2 bb d4 14 fd 3d 2e 42 d9 bc b6 56 ee bc
       -0.0074144495 0.12357488 -0.026520815 -0.029094081
000380 31 76 10 3e 41 a6 b8 bd 8a 23 76 be 6a 75 27 3e
       0.14107586 -0.090160854 -0.24036995 0.16353384
000390 f4 c1 cd bc f4 46 96 3d 6a 6f 25 3e 28 a6 43 3d
       -0.025116898 0.07337752 0.16155782 0.04776588
0003a0 c9 5c 56 3e 89 03 9f 3d af 79 83 3c 15 b5 60 3e
       0.20933832 0.07764346 0.016049234 0.21944077
0003b0 3e 47 af 3d ab d7 ce 3d 0a 0b 4b 3e ab 37 0f bd
       0.0855851 0.10099729 0.1982843 -0.0349652
0003c0 ed 6d 9b ba ab 58 b4 3d 37 23 58 bd e6 78 87 bd
       -0.0011858322 0.088059746 -0.05276796 -0.066148564
0003d0 c5 72 9c bd ec 30 41 3d 62 9d f9 3c ef 90 0b bc
       -0.07639078 0.047165796 0.030470554 -0.008518442
0003e0 0d 1e 57 bd 9f c6 0e be 9b ad b4 bd bc 50 53 3c
       -0.052518893 -0.13942955 -0.08822175 0.012897667
0003f0 a8 6c 95 bd 6f 70 f3 bc e9 c9 24 3e b6 ab e5 bc
       -0.07296115 -0.029716698 0.16092648 -0.02803598

rnn.weight_hh_l0 f4 [300, 100]
000000 f3 77 d9 3d 2a 94 a7 3d f7 1a 63 3e 9c e6 38 be
       0.106185816 0.08182557 0.22178255 -0.1805672
000010 3e a6 45 3e c0 06 ae bd d5 b4 89 be 0b 88 6a 3d
       0.19301698 -0.08497381 -0.26895776 0.057258647
000020 5b 27 93 3b ee 64 07 be 7e 7f 72 be 6d 05 c2 be
       0.0044907755 -0.13222095 -0.23681447 -0.37894765
000030 e0 3a 32 3e 4c a4 2d bd 9b b4 b3 3c 62 e1 39 3e
       0.17405272 -0.042393014 0.021936705 0.18152383
000040 ea e8 83 be 4d 60 f1 3d 90 94 d3 3d 76 2e 57 3d
       -0.25763637 0.11785946 0.103310704 0.052534543
000050 6e 53 ae 3d 36 86 3d bb 36 74 cf bd b5 ce ac bd
       0.08512007 -0.0028919107 -0.10129587 -0.08437864
000060 1d f3 28 be b4 5d b9 bc 81 2f 11 3e 34 65 96 3e
       -0.1649899 -0.022627689 0.14178278 0.29374087
000070 7f ae 29 3e 6f d9 9a bd ee 34 e3 3b 61 5b 61 3e
       0.16570471 -0.075610034 0.0069338 0.22007515
000080 62 d5 84 bc 0b da 19 be ad be 03 be ad 99 64 3e
       -0.01621503 -0.15024583 -0.12865706 0.22324248
000090 1f 35 bc bd ef 64 25 3e b4 13 3a be ab 89 93 3d
       -0.091898195 0.16151784 -0.18171579 0.072039925
0000a0 5d 03 af 3d 49 36 a1 bd a9 6b c2 bd a3 ae 4a 3d
       0.08545563 -0.07871682 -0.09493191 0.049482953
0000b0 18 81 1c be be c1 14 3d 0a 7d 4d bd 64 a5 69 3d
       -0.1528362 0.03631758 -0.050168075 0.057042494
0000c0 54 0c b6 bd 57 fe 20 3e e6 ac 36 be 56 f0 65 3e
       -0.0888907 0.15722023 -0.17839393 0.22454962
0000d0 1f 1e 42 be f0 b7 c1 be 26 16 91 bc 7f 08 47 be
       -0.18956803 -0.37835646 -0.017710757 -0.19436835
0000e0 4c 6f 6a 3e a0 05 ba 3d 0a 6d 48 3e de be a7 bd
       0.22894019 0.09083104 0.19572845 -0.08190702
0000f0 91 d7 25 bd 39 86 99 3e 73 b4 d1 bd 4d 27 f1 3d
       -0.040488783 0.29985216 -0.10239496 0.11775074
000100 bd ff 73 be 38 6b ab 3e bf 4d 3d be 84 7c 61 3b
       -0.23828025 0.3348024 -0.18486689 0.0034406492
000110 33 ca 8d 3d 32 fb 1b 3d 96 b1 a1 3e da 74 48 be
       0.06923332 0.038081355 0.315808 -0.19575825
000120 9e 59 6b 3e 98 60 4f 3e c5 f9 9e 3d 8e 02 1b 3d
       0.22983405 0.20251691 0.077624835 0.037844233
000130 3f 45 82 bc 97 e4 b8 3d bb ce 0c be 18 f5 16 ba
       -0.01590216 0.09027975 -0.13750736 -0.0005758568
000140 24 2d 36 3d 71 c3 5a be f1 c8 c5 bd 95 4a 25 bd
       0.044476643 -0.21363617 -0.09657467 -0.04035433
000150 8d 1e 48 be 36 f1 c7 3d 2a 63 02 be 8e d6 bb bc
       -0.19542904 0.09762804 -0.1273314 -0.022929456
000160 88 8c 92 3a 23 a7 93 3c 7d 9c d8 3d ae 96 8b bd
       0.0011180798 0.018024033 0.10576723 -0.06815849
000170 cf b5 50 be 4e 3f 02 3e 4e d7 47 3e f2 ca a6 bd
       -0.20381854 0.12719461 0.19515726 -0.081441775
000180 0e 4c 0d 3e da ab 8c be 07 b5 8d 3e ba 7f b7 bc
       0.13798544 -0.27474862 0.27677175 -0.022399772
000190 8e 67 e7 3b bb 3b 3a 3d 1b 81 ff bd bf 03 9e 3d
       0.007061905 0.04546712 -0.12475797 0.07715558
0001a0 0b 74 27 3d d8 21 4f 3d 9c ac 4e be b4 e9 96 bd
       0.04088215 0.050569385 -0.20183033 -0.07368794
0001b0 79 22 9d 3d 80 69 57 3e b2 bc e9 bd 47 e9 68 3d
       0.07672591 0.21036339 -0.11412944 0.056863096
0001c0 b3 e9 26 3e 6a f0 37 bd eb 36 3a 3d 8c 73 9d bd
       0.16300087 -0.04490701 0.04546253 -0.076880544
0001d0 ab ce 44 3e e9 5c 0e bd 5d 5d b6 bd 80 8b a1 3d
       0.19219463 -0.034756575 -0.089045264 0.07887936
0001e0 dc f8 f5 bd e2 e9 1b be 52 ba 08 3e ec c6 05 3e
       -0.12010357 -0.15225938 0.13352326 0.13064164
0001f0 a7 01 92 bc 9f b2 c9 3d f2 88 07 be 95 cf e9 bc
       -0.017823054 0.098485224 -0.13235834 -0.028541366
000200 06 6b 92 3d cf 9c 8a bd bc b8 41 3d 86 ed 39 3e
       0.07149319 -0.0676819 0.047295317 0.18157014
000210 a2 54 03 3d fe ce 6d bd fc ee b6 be 4d b8 c3 bc
       0.032063134 -0.05805873 -0.35729206 -0.023891592
000220 8c 06 35 bc 0b 9e c3 3d 90 bb 87 3d b1 d0 50 3e
       -0.011048924 0.09551629 0.066275716 0.2039211
000230 04 bf 8e be 52 b5 07 3e 6e c7 87 bd 91 5e 26 bd
       -0.27880108 0.13252762 -0.06629835 -0.04061753
000240 63 22 60 bd 5b dc 27 3e 78 87 57 3e a6 bb 01 be
       -0.054720294 0.16392653 0.21047771 -0.12669238
000250 ef a1 12 be 46 64 5b bd 3d 1f 25 3e b8 77 4d bd
       -0.14319585 -0.053562425 0.16125198 -0.050163
000260 30 f6 86 be 6f 92 89 bd 3d 2d 20 3d 48 0a 07 be
       -0.263597 -0.06717383 0.039105643 -0.13187516
000270 fd cb df bb 79 5d 8b 3d 09 bd 44 3d 4d a4 f3 bc
       -0.006829737 0.06804938 0.04803184 -0.02974143
000280 38 14 ab 3b 4c 83 c4 3d 2b f5 a8 3c a7 17 57 bc
       0.005220916 0.095953554 0.020624718 -0.013128198
000290 ac 8c 1c 3d 82 63 b0 3e 98 32 e5 3c 17 aa a7 bd
       0.038220093 0.34450918 0.027978227 -0.08186739
0002a0 4d 5c 2d be 8e 63 64 be 4d 5f 9b 3d c9 9a 7f bd
       -0.16929741 -0.22303602 0.075865366 -0.062403474
0002b0 fd 2b d0 3c 84 b9 04 be 80 29 b5 3d 10 d2 69 3d
       0.0254116 -0.12961394 0.08845806 0.057085097
0002c0 c3 a1 65 3d e5 d9 00 3e a7 4d 9e 3d 04 0b ad bc
       0.05606247 0.1258312 0.07729655 -0.021123417
0002d0 50 f1 dd 3c 31 cb e4 3d 94 11 99 bd bb 23 30 3e
       0.027092606 0.11171568 -0.07474056 0.1720113
0002e0 93 60 3c 3d 5f 99 c8 3d fd 3a 4e 3e 74 5c a0 3d
       0.045990538 0.09794878 0.2013969 0.07830134
0002f0 6e de 91 bd 9b 6d 2e be 97 22 7c 3d c3 bd 3d bc
       -0.07122503 -0.17033999 0.061556425 -0.011580887
000300 ce ac ef bd 41 55 10 be 86 b0 cf bd 0c 3e 94 be
       -0.11702882 -0.14095022 -0.10141091 -0.28953588
000310 94 4b 09 bd 51 a5 02 be 56 0d 9e 3d 9b 67 65 3d
       -0.033519343 -0.12758376 0.077173874 0.05600701
000320 4c f1 34 3d 6a b5 02 3d 87 df 23 be 5e e7 b6 bd
       0.04417543 0.03191129 -0.16003238 -0.089308485
000330 44 ff 4c 3d ec c2 3d bc 0d b6 19 be a4 ae dd 3d
       0.050048128 -0.0115821175 -0.15010853 0.10824326
000340 b3 11 e0 bd 8c eb 00 bd 7d e2 b3 3e 16 f3 1b bd
       -0.10940876 -0.031474635 0.35133734 -0.03807362
000350 3d 44 9d 3d 37 a5 42 3d 09 db 15 be 1d f1 ce be
       0.07679031 0.047520842 -0.14634337 -0.4041833
000360 a7 7b 02 3e 08 9c 02 bd 23 6d 55 3d e6 2b 9f 3d
       0.12742482 -0.031887084 0.052106034 0.07772045
000370 af 9b 24 be d7 f4 3e 3e 1c e0 04 be ce 35 06 3d
       -0.16075014 0.18648086 -0.12976116 0.032766156
000380 ab ea a0 bc 47 c6 20 3c c0 bd c3 3d 94 af 14 3e
       -0.019643148 0.009812898 0.09557676 0.14520103
000390 53 da 5c be 13 00 8a be 73 ed 94 bd 06 fb 47 3e
       -0.21567659 -0.26953182 -0.07271852 0.19529352
0003a0 5b 49 85 3c 38 e1 06 3c 2f 6c c8 bd fd 6c 68 3d
       0.01627033 0.008232407 -0.097862594 0.056744564
0003b0 de 29 14 3c ce 98 4d 3e d2 f2 41 3d 04 fe 51 3d
       0.009043185 0.20077822 0.047350712 0.05126764
0003c0 7c f7 86 be c9 df f3 bc 36 28 f0 bd b1 10 62 bd
       -0.2636069 -0.029769795 -0.1172642 -0.0551917
0003d0 83 54 ec bc 23 cb 5e bd ba fe b6 3c b2 af 54 3e
       -0.028848892 -0.054392945 0.02233826 0.20770147
0003e0 39 42 c6 3d 11 c5 8f 3d 7e 7b 02 be f4 aa 24 3c
       0.096806 0.07020009 -0.12742421 0.010050524
0003f0 fd 27 1e be d3 ad 7d 3d fb 3a 2e be 6c 11 52 bd
       -0.15444942 0.06193335 -0.17014687 -0.051286146

rnn.bias_ih_l0 f4 [300]
000000 b9 3c d9 3d 7e dd 3e bd 18 e7 84 bd 2c bb 0a 3c
       0.10607285 -0.04659795 -0.0648939 0.008467477
000010 a2 35 cf 3c 33 f9 b6 3c bf c7 b7 3d 0f 0b 50 bd
       0.025294129 0.022335624 0.089736454 -0.050791796
000020 69 5d a7 3c 84 ac e4 bd 1c a5 30 3d e5 e0 12 3e
       0.020430284 -0.11165717 0.04312621 0.14343603
000030 57 03 0f 3e 5c cf 08 3a a6 a1 cc bc af 23 84 bc
       0.13966118 0.0005218887 -0.024979424 -0.016130297
000040 a7 9f 6e bd 06 24 22 3e 4d 68 24 3d 64 35 02 3e
       -0.058257725 0.15834054 0.04013853 0.1271568
000050 6d 1b d3 3d 22 c3 07 3e f5 54 ba bc 39 62 37 3d
       0.103079654 0.13258031 -0.022745589 0.044771407
000060 1d 6d c2 3d b5 8a df 3d b4 1e 54 bc 5a ae 23 3d
       0.09493468 0.10915128 -0.012946773 0.039961196
000070 65 95 9e bb 75 6d b1 3d 58 e2 08 3d 52 38 22 3e
       -0.0048395866 0.086634554 0.033418983 0.15841797
000080 80 54 0f 3e ce 9c b9 3d e0 56 17 3e e9 21 33 bd
       0.13997078 0.09063111 0.14779234 -0.04373351
000090 16 7e 2e 3c 93 28 bf 3d 9b 52 f9 3d 79 7f 02 3e
       0.010650178 0.09333911 0.12173959 0.1274394
0000a0 3d 25 93 3d 1c 0f e8 3c 61 a6 b3 3d bb d2 93 bc
       0.07184837 0.028327517 0.08771969 -0.01804482
0000b0 85 3f 0f 3e 51 ad 26 bd ea ad a2 3a 63 52 38 3e
       0.13989075 -0.04069263 0.001241145 0.18000178
0000c0 a6 7e 76 3d 92 da fc 3d c4 4a 60 bc 16 0b 48 3d
       0.060179375 0.123463765 -0.0136897005 0.048838697
0000d0 73 d2 04 bd f7 84 f7 bd 3d 3d c8 3d 87 b1 05 3d
       -0.032427263 -0.12085908 0.09777305 0.032640006
0000e0 a4 1b 1c 3e 3d 3d 30 3e a8 2c 86 bb 3e 84 b3 3c
       0.15244919 0.1721086 -0.004094679 0.021913644
0000f0 d1 a9 11 3d a6 ea e5 3a 91 df 98 3d 5b 7d 22 bd
       0.03556234 0.0017541244 0.07464517 -0.03967033
000100 71 86 81 3c c6 f8 aa 3d 77 b0 b2 3d 20 d3 22 3e
       0.015811177 0.08348231 0.08725064 0.1590085
000110 4c 3b b9 3d 2c 52 f5 3c 7f eb b8 3d 9f ed 99 3d
       0.09044513 0.02994641 0.09029292 0.07516026
000120 e8 da 2e bc 1e f5 2d 3c f5 c4 5b 3c 9e bc 16 bc
       -0.0106723085 0.0106175225 0.013413657 -0.009200243
000130 db a7 96 3c 6e ce cf 3c a5 3c 13 3e a9 84 07 3d
       0.018390587 0.025366988 0.14378603 0.0330855
000140 d7 e5 97 bd 56 0f cd 3d d2 e1 9d 3d 4a a7 01 bd
       -0.07416885 0.10012691 0.077090874 -0.03165368
000150 5d 8e 13 3d 36 f1 0a 3e 56 6b 1e 3d 14 0a 76 3d
       0.03602444 0.13568577 0.038676582 0.060068205
000160 c6 39 c2 3d 0f 86 d1 bc e6 44 1b 3e 2b f5 9a bc
       0.09483676 -0.02557662 0.15163001 -0.018915733
000170 50 e4 ee 3d 92 03 b8 bd 16 62 c9 3c 58 8b 2a 3d
       0.11664641 -0.08985056 0.024582904 0.041636795
000180 f3 34 a2 3d 98 28 c7 3d 64 36 b2 3d 71 28 28 3e
       0.079202555 0.097245395 0.087017804 0.16421677
000190 21 b8 7f be 9c 31 2f be 44 81 ec bd 0e fa 3c bd
       -0.24972583 -0.17108768 -0.11548093 -0.04613691
0001a0 9a 2c 44 be 50 7c 33 bd 7c 08 14 be 84 3e ec bd
       -0.19157639 -0.043819726 -0.14456362 -0.115353614
0001b0 6c 55 11 be b3 50 fa bd 0a 80 48 bd 6d d2 16 ba
       -0.14192742 -0.122224234 -0.048950233 -0.0005753402
0001c0 be b6 ca bd 7b 08 9d bd b1 28 fc bd cd ca 94 3c
       -0.098981366 -0.07667633 -0.12312449 0.01816311
0001d0 31 c5 e9 bd da e0 dc bd 57 1e 44 be 2f 93 47 3d
       -0.114145644 -0.107850745 -0.19152199 0.04872435
0001e0 1c be f8 bc 2c db 61 be 3e 18 79 be 4e ee bc bd
       -0.030364089 -0.22056264 -0.24325654 -0.092251405
0001f0 78 48 5f be 8c 12 41 be 20 d9 55 bd f1 92 8e bc
       -0.21804988 -0.18854731 -0.05220902 -0.017404051
000200 ce ff 3f be af d9 1f be 52 5d 90 be 7d ba 88 be
       -0.18749925 -0.15610383 -0.28196198 -0.2670478
000210 d4 4e 03 be ac e5 b6 bd f9 0e 9b 3c 58 a6 ca bd
       -0.1282304 -0.08930525 0.018928038 -0.09895009
000220 ef b2 f7 bd e9 94 02 be 98 d1 16 be 40 2b ad bd
       -0.12094676 -0.12752117 -0.14728391 -0.08455515
000230 57 c5 f8 bd 77 ff 51 3c 41 37 a0 b9 e3 2e 3d bd
       -0.121470146 0.012817255 -0.00030558745 -0.046187293
000240 d0 37 2d be 45 d2 47 be df 3b d2 bd e7 df f2 bd
       -0.16915822 -0.19513805 -0.10265326 -0.11859112
000250 78 92 8f bd 81 e2 73 bd be 87 39 ba 26 a6 d4 bc
       -0.070103586 -0.059542183 -0.0007077417 -0.025958132
000260 1e 81 77 bd db 6b 0e be 68 f3 eb bd 72 28 4c be
       -0.06042587 -0.13908331 -0.115210354 -0.19937304
000270 1f 9d 86 bd 02 33 6a 3d 74 50 cf 3c 42 c4 84 bd
       -0.06572937 0.05717755 0.025306918 -0.06482746
000280 df 29 2c be 02 ad b3 bd 80 62 2d be 46 08 fb bc
       -0.16812848 -0.08773233 -0.16932106 -0.030643594
000290 b6 dc 04 be 16 42 13 be 71 5e 21 be 55 38 fb bd
       -0.1297482 -0.14380679 -0.15758683 -0.12266604
0002a0 97 65 85 bd b9 46 25 be 20 af 9b be 80 a5 68 be
       -0.06513517 -0.1614026 -0.30407047 -0.22719383
0002b0 42 d4 d5 bd 1f 5f 49 be 15 77 6e bd 1b 87 6e be
       -0.104408756 -0.19665192 -0.058219034 -0.23293726
0002c0 5c d8 ca bd d9 f7 4e bc 86 e5 fb bd 39 01 32 be
       -0.099045485 -0.012632334 -0.122996375 -0.17383279
0002d0 cd 80 16 be c3 a4 5f be d6 7b 5f be eb d3 39 bd
       -0.14697571 -0.21840195 -0.21824583 -0.045368116
0002e0 54 c2 0f be fe 1d 1a be 8b e3 3b be a1 e4 18 be
       -0.14038974 -0.15050504 -0.1834852 -0.14930965
0002f0 d6 98 fc bd 20 b8 38 be 9d fa ce bd 14 96 ac bd
       -0.12333839 -0.18038988 -0.101063944 -0.08427063
000300 59 1c a4 bc 40 c1 12 be 42 59 79 bc 51 12 80 be
       -0.020033048 -0.14331532 -0.015219035 -0.25013974
000310 f5 b5 bd bd 08 a7 95 be 1e 94 c3 bc 56 52 0c be
       -0.09263221 -0.29228997 -0.023874339 -0.13703284
000320 19 ca 43 3d 01 60 01 be 8f d7 34 3c 1c ee f4 3d
       0.047800157 -0.12634279 0.011037721 0.11959478
000330 5e d2 04 be 2b ec b2 bc 49 f3 dc 3d e0 9c 4f 39
       -0.12970874 -0.02184113 0.107885905 0.00019799499
000340 b7 dd 3e 3c 80 fb 67 be 9a f6 0c bc 4c 8e 3c bc
       0.011649541 -0.22654533 -0.008603716 -0.011508536
000350 f2 39 2e bd 26 6b 35 3c 67 57 d2 bd 3e b2 4e 3d
       -0.04253573 0.011072909 -0.10270577 0.050462954
000360 a3 53 0a be 70 b9 01 be 68 28 77 bd cd 34 8c bd
       -0.13508467 -0.12668395 -0.06034127 -0.068460084
000370 80 46 a7 3d ed d1 28 3d f2 66 05 bd 92 ec 59 3d
       0.08167744 0.041215826 -0.03256888 0.053204127
000380 83 31 64 bd d9 d7 1d be ce 6f d4 bd 7a 70 69 bd
       -0.05571128 -0.1541437 -0.103728876 -0.05699203
000390 fb 9e 09 bb ad 08 46 bd cc 36 2b be 3a b3 ee 3d
       -0.00209993 -0.048348118 -0.16720122 0.116552785
0003a0 0b cb 43 3d f1 b9 92 bd 80 88 11 be ec c6 3b 3d
       0.04780106 -0.07164372 -0.14212227 0.045844004
0003b0 f9 e3 54 3e e3 59 58 bd 6e b0 b6 3d c6 1d cb 3d
       0.2079009 -0.052820098 0.0892037 0.09917788
0003c0 7c 8a eb 3d b3 85 9c 3d 5c 4a c0 3c 56 8b 19 3c
       0.11501023 0.076426886 0.023472957 0.009371599
0003d0 31 36 9c 3d 74 b7 94 bd 72 f7 53 3c bf 61 2c 3d
       0.07627524 -0.072615534 0.0129374135 0.042085405
0003e0 25 54 55 3d bc c3 3b bc d6 4d 02 be 63 71 bc bc
       0.0520822 -0.011460241 -0.12725005 -0.023003286
0003f0 76 b1 96 bd 4e 6d d6 3c 1a 74 b2 3d 45 a9 37 3d
       -0.07358067 0.026175167 0.08713551 0.044839162
