male_name_generator.pt (torch, 289183 bytes, 7 tensors)

embed_layer.weight f4 [56, 100]
0	0x3fa0fd7c	1.2577357
1	0x3f7ef391	0.995904
2	0xbf313d71	-0.6923438
3	0x3fb4d2d8	1.4126844
4	0xbdf72ccd	-0.12069092
5	0xbf521b1e	-0.8207263
6	0xbf3a40a4	-0.72754884
7	0xbf71dd0d	-0.9447792
8	0xbf36e5ef	-0.714446
9	0xbf3a0904	-0.72670007
10	0xbff8cd49	-1.9437648
11	0x3f56b2e4	0.83866715
12	0x3f07e3a4	0.5308173
13	0x3e064b7a	0.1311473
14	0x3fc7db03	1.5613712
15	0x3f827750	1.0192661
16	0x3f10aae2	0.56510746
17	0x3f673983	0.9032213
18	0xbfb5ab23	-1.4192852
19	0xbed0241a	-0.40652543
20	0xbf5eb054	-0.86987805
21	0xbfaae7b1	-1.3351957
22	0xbf378234	-0.7168305
23	0xbf4f028c	-0.8086326
24	0x3dd12305	0.102117576
25	0x3fed3606	1.8532112
26	0xbf39e23e	-0.72610843
27	0x3e9f12f2	0.31069142
28	0x3d17a180	0.037019253
29	0x3e1663db	0.1468653
30	0xbf1ee65d	-0.62070256
31	0x3d0a8d06	0.033825897
32	0x3e88325f	0.2660093
33	0x3f9e52be	1.2369001
34	0xbecda167	-0.40162203
35	0x3f1dd125	0.61647254
36	0x3f24f446	0.6443523
37	0x3f818ad8	1.0120497
38	0xbfabf3a0	-1.3433723
39	0x3fbc8443	1.4727863
40	0x400fbe25	2.2459805
41	0x3f291ff4	0.6606438
42	0x3e566efa	0.20940772
43	0x3f9a1a4c	1.2039275
44	0x3ebbd614	0.36686766
45	0xbe8b6586	-0.27225894
46	0xc00c98c5	-2.1968243
47	0x3f429aea	0.7601763
48	0x3e0609cc	0.13089675
49	0x3f81d1ea	1.0142186
50	0xbe64d9f2	-0.22348765
51	0x3c44287a	0.011972541
52	0xbfe13007	-1.7592782
53	0xbc274f45	-0.01021177
54	0x3e3dc6a1	0.18532802
55	0x3f8c5e33	1.0966247
56	0xbf07c50b	-0.5303504
57	0x3f1ad088	0.60474443
58	0xbdd412ca	-0.10355146
59	0x3fa1dd3d	1.2645642
60	0x3fd25416	1.6431911
61	0x3f6c9b1a	0.92424166
62	0x3ed07190	0.4071164
63	0xbe011dc4	-0.12609011
64	0xbf12c29e	-0.5732821
65	0x3f7a00da	0.9765755
66	0xbedc30fa	-0.43006116
67	0x3f5298d0	0.82264423
68	0xbf896aab	-1.0735677
69	0xbf0a987e	-0.54138935
70	0x3fc1f72d	1.5153557
71	0xbf187f73	-0.5956947
72	0xbf9e6adf	-1.2376364
73	0x3de223a3	0.110419534
74	0xbe8c5c33	-0.27414092
75	0x3eea86d1	0.45805982
76	0xbd9e7778	-0.077376306
77	0xbe0c305e	-0.13690326
78	0x3f413c48	0.75482607
79	0x3f0927fb	0.5357663
80	0xbfc3e79e	-1.5305059
81	0xbe1032e4	-0.14081913
82	0xbf84f019	-1.0385772
83	0x3fd1c5be	1.6388471
84	0x3ce8324f	0.028344302
85	0xbf98625b	-1.1905016
86	0xbe87fd33	-0.26560363
87	0xbf0bb87a	-0.54578364
88	0xbfd2b37a	-1.6461022
89	0xbdb09855	-0.08622805
90	0xbf96627c	-1.1748805
91	0xbf864a83	-1.0491489
92	0xbb6364c0	-0.0034697503
93	0x3e4a3d65	0.19749983
94	0x3f56cf3d	0.8390997
95	0x3e989729	0.29802826
96	0x3f3942bd	0.7236746
97	0xbf45f1e7	-0.7732224
98	0xbf06ff34	-0.5273316
99	0xbfe0baf4	-1.7557054
100	0xbf5b1466	-0.85578
101	0xbf98dc77	-1.194228
102	0x3ecb68f8	0.39728522
103	0xbf8e8f52	-1.1137488
104	0x3fca15b1	1.578787
105	0xbf6e5c5a	-0.9310967
106	0xbfd9300f	-1.6967791
107	0xbf0d3a91	-0.5516749
108	0x3f4fca1e	0.8116778
109	0xbf90e45b	-1.1319689
110	0xbeccfdfb	-0.40037522
111	0x3e596b41	0.2123232
112	0xbf3e24e7	-0.7427506
113	0x3f2ac035	0.66699535
114	0x3ec10a03	0.3770295
115	0x3f8e5051	1.1118261
116	0x3eac2e36	0.33629006
117	0x3f521562	0.8206388
118	0x3b51e6a6	0.0032028346
119	0x3e6375dc	0.22212929
120	0xbf4e40df	-0.80567735
121	0xbe22a9b2	-0.15885046
122	0x3f1841bd	0.5947531
123	0xbe669691	-0.22518374
124	0x3e1dde7e	0.15416905
125	0xbe41cf68	-0.18926775
126	0xbf835aec	-1.0262122
127	0x3eade7c6	0.33965892
128	0x3f2d7d80	0.6776962
129	0xbfe17c84	-1.7616124
130	0x3f12c4c3	0.57331485
131	0xbd8fc7d7	-0.07020538
132	0xbf9ccebb	-1.2250589
133	0xbf6a54bd	-0.9153555
134	0x3f5ae932	0.8551208
135	0x3f51d80a	0.81970274
136	0xbf6e5b0b	-0.9310767
137	0xbf12eac2	-0.5738946
138	0xbec11cfd	-0.3771743
139	0x3f022c92	0.5084926
140	0x3f9e47ba	1.2365639
141	0xbe38253d	-0.17982955
142	0xbf25f8d3	-0.648328
143	0x3fcd0758	1.6017866
144	0x3f85eb02	1.0462344
145	0x3f94adcd	1.161554
146	0x3eb76ffe	0.3582763
147	0x3f937bcf	1.1522158
148	0xbfa78eae	-1.3090417
149	0x3d04c0e3	0.032410514
150	0xc0104255	-2.2540486
151	0xbe9f303e	-0.31091493
152	0xbfd80e2b	-1.6879324
153	0x3e148127	0.14502393
154	0xbfba3166	-1.4546325
155	0x3f0e3632	0.55551445
156	0x3f9d7f50	1.2304478
157	0x3fb919fc	1.4461055
158	0xbcb6d038	-0.022316083
159	0x3ee4cfea	0.44689876
160	0x3fae019c	1.3594241
161	0xbf8a9372	-1.0826247
162	0x3f322e75	0.6960214
163	0xbf788ad3	-0.9708683
164	0xbe1306b5	-0.14358027
165	0x3f54ad61	0.83077055
166	0xbfb2f646	-1.3981407
167	0xbedd59e8	-0.43232656
168	0x3e773ed9	0.24145068
169	0xbf9dea85	-1.2337195
170	0x3f28b3db	0.6589944
171	0xbe320827	-0.17385922
172	0x3f03df3e	0.51512516
173	0x3dac821a	0.084232524
174	0xbfbefe6c	-1.4921393
175	0x3f042df5	0.51632625
176	0xbe7d31fa	-0.24726096
177	0x3f39f03d	0.726322
178	0x3f9d89c3	1.2307667
179	0x3ee1370c	0.4398731
180	0xbf115aa8	-0.56778955
181	0xbf036ffd	-0.51342756
182	0xbe0a07fa	-0.13479605
183	0xbf538569	-0.8262544
184	0x3f0da4a4	0.55329347
185	0x3e8bd08c	0.27307546
186	0x3ef5e1cc	0.48023832
187	0xc000a538	-2.0100842
188	0xbf4ea2f7	-0.80717415
189	0xc00f28d1	-2.2368662
190	0x3fbca43b	1.4737619
191	0xbf39d4b2	-0.7259017
192	0x3f5d54a7	0.86457294
193	0x3f95c782	1.170151
194	0xbe3d1046	-0.18463239
195	0x3f4f882b	0.8106715
196	0xbf2d2a86	-0.6764301
197	0xbefcd8f4	-0.49384272
198	0x3e1410f1	0.14459588
199	0x3eba4ebf	0.36388204
200	0xbf1ab522	-0.60432637
201	0xbd31655d	-0.04330956
202	0x3fce4b6b	1.6116766
203	0xbf8a4786	-1.0803077
204	0x3e571530	0.21004176
205	0xbee61303	-0.4493638
206	0x400d8e4d	2.2118104
207	0x3fb8d178	1.4438925
208	0x3ef91977	0.4865224
209	0x40331909	2.798403
210	0x3f72134a	0.9456068
211	0xbfb1e599	-1.3898193
212	0xbf1b848f	-0.60749143
213	0xbe1de57a	-0.1541957
214	0xbf2808de	-0.6563853
215	0x403b9249	2.9308035
216	0x3e95992d	0.29218426
217	0x3f645135	0.8918641
218	0x3fd42afc	1.6575618
219	0xbedf8861	-0.43658736
220	0x3f952481	1.1651765
221	0x3e7854c7	0.2425109
222	0x3f85c33a	1.0450203
223	0xbf563cc6	-0.8368648
224	0x3e39ce17	0.18145023
225	0xbe30e4d2	-0.17274788
226	0x3f0c797d	0.54872876
227	0x3cdf04c7	0.027223958
228	0x3f0342c7	0.5127377
229	0xbf87376c	-1.0563788
230	0x3ef52269	0.47877815
231	0xbf2251ba	-0.63405955
232	0x3fd51e35	1.6649843
233	0x3ec56612	0.38554436
234	0x3f969780	1.1764984
235	0x3efb929c	0.49135292
236	0x3f193c3c	0.59857535
237	0xbfbc9fb9	-1.4736243
238	0xbe914878	-0.28375602
239	0xbf526009	-0.8217779
240	0xbe755c39	-0.23960961
241	0x3fb475b8	1.4098425
242	0xbeb2a6df	-0.34892938
243	0x3e53ef5b	0.20696776
244	0xbfa86b47	-1.3157738
245	0xbfa53e68	-1.290967
246	0x3f96f1eb	1.1792578
247	0x3fb97ce3	1.4491237
248	0x3fdf2f50	1.7436314
249	0x3ef9c65c	0.4878415
250	0x3f700601	0.9375916
251	0x3f154c57	0.5831961
252	0x3f249241	0.64285666
253	0x3de4432d	0.11145625
254	0xbeeec89e	-0.46637434
255	0xbf368064	-0.7128966

rnn.weight_ih_l0 f4 [300, 100]
0	0x3e1de1be	0.15418145
1	0x3d727a29	0.059198532
2	0xbe9f8394	-0.31155074
3	0xbdcadf34	-0.09905854
4	0x3cf7c98e	0.030247476
5	0x3ddb7213	0.10715117
6	0x3e272668	0.16323245
7	0x3dd23c6d	0.102654316
8	0xbc7095ee	-0.0146841835
9	0xbd034aa7	-0.032053616
10	0x3d699ef0	0.05703634
11	0xbec30304	-0.38088238
12	0xbe18bc61	-0.14915611
13	0xbe0b15fa	-0.13582602
14	0xbdea910c	-0.11453447
15	0x3e3db370	0.18525481
16	0x3dcea521	0.100900896
17	0xbe98da9f	-0.29854295
18	0x3da5219b	0.0806305
19	0x3c803ed3	0.015654957
20	0x3d994a65	0.07484893
21	0x3e2a63c0	0.16639614
22	0xb9e155eb	-0.00042979358
23	0x3e946596	0.28983754
24	0xbdc78e3f	-0.09743928
25	0x3ccc855b	0.024965933
26	0xbd5cbcf4	-0.053891137
27	0x3e828694	0.254933
28	0x3d93cdd8	0.07216996
29	0xbdc9dece	-0.0985695
30	0x3e5c2d00	0.21501541
31	0x3e5083f1	0.20362832
32	0x3ee07f03	0.43846902
33	0xbd1d88d8	-0.038460582
34	0xbe4c7fd8	-0.19970644
35	0x3dd843d3	0.105598114
36	0xbe1ec4be	-0.15504739
37	0x3d407d7c	0.04699467
38	0x3e7fd2c5	0.24982746
39	0x3e732710	0.2374537
40	0xbe240046	-0.1601573
41	0xbe828ff9	-0.25500467
42	0xbe642090	-0.22278047
43	0x3e7141e4	0.23560292
44	0xbe1095cf	-0.14119647
45	0x3d24f603	0.040273678
46	0xbd52fa06	-0.051507972
47	0xbe9d72f5	-0.30751768
48	0xbe8be5b2	-0.2732368
49	0x3d780957	0.060555782
50	0x3dc4b957	0.09605663
51	0xbd041064	-0.032242194
52	0x3d955454	0.07291475
53	0xbc45b9cd	-0.012068224
54	0x3e1d6925	0.1537214
55	0x3d8cc602	0.068737045
56	0x3dbd77f9	0.092513986
57	0xbe3673cf	-0.17817615
58	0xbdef47c6	-0.116836116
59	0x3d779763	0.060447108
60	0x3bebab1c	0.0071920287
61	0xbcc23d6d	-0.02371093
62	0x3e369ad7	0.17832504
63	0xbd8c516f	-0.0685147
64	0xbe113d7c	-0.1418361
65	0xbe795d40	-0.24351978
66	0xbe1afa36	-0.1513451
67	0x3d5c7dd3	0.053830933
68	0xbe8ef6e9	-0.27922752
69	0x3ebef0a4	0.3729297
70	0xbdae9f6b	-0.085265
71	0xbe110c97	-0.14164959
72	0xbc8405eb	-0.016116103
73	0xbe33eae0	-0.17570066
74	0x3e0a14fb	0.13484566
75	0xbc602c0d	-0.0136823775
76	0xbe51e40b	-0.20497148
77	0xbe0e280a	-0.13882461
78	0xbe5e9a19	-0.21738471
79	0xbdba2b2e	-0.09090267
80	0xbd914ca4	-0.07094696
81	0x3e220da1	0.15825512
82	0xbe1ef97a	-0.15524855
83	0xbde1f089	-0.110322066
84	0xbe0d9a7b	-0.13828461
85	0x3e6be60b	0.23036973
86	0xbefdd9d9	-0.49580267
87	0x3e225ddc	0.15856117
88	0x3d2547e6	0.04035177
89	0xbb267e1f	-0.0025404764
90	0xbde1af17	-0.11019724
91	0xbe5e1773	-0.21688633
92	0x3d67ac3f	0.05656075
93	0xbecd94d5	-0.40152612
94	0xbe1c0602	-0.15236667
95	0x3e109602	0.14119723
96	0x3d332fc7	0.043746736
97	0xbd312431	-0.043247405
98	0xbe466922	-0.19376042
99	0xbe198589	-0.14992346
100	0xbd60287a	-0.0547261
101	0xbe44019a	-0.19141236
102	0x3c043f0b	0.008071671
103	0xbd8c8e85	-0.06863121
104	0xbc00fefb	-0.007873292
105	0x3d158aac	0.0365092
106	0xbd68735d	-0.056750644
107	0x3e3654aa	0.17805734
108	0xbe44ac0b	-0.19206254
109	0xbb42ffd7	-0.0029754543
110	0xbd6ec876	-0.058296643
111	0x3df63776	0.12022297
112	0xbe0bd87b	-0.136568
113	0xbc0dc66e	-0.008653266
114	0xbba9f524	-0.0051866937
115	0xbd59326d	-0.053026605
116	0x3da303ef	0.07959735
117	0xbc909e5f	-0.017653642
118	0xbe46763e	-0.19381043
119	0x3d3476c7	0.044058587
120	0xbc8e7bbd	-0.017392987
121	0xbd1997e2	-0.037498362
122	0x3e6206b6	0.22072873
123	0xbd77cb23	-0.06049646
124	0x3e891d73	0.2678028
125	0x3d0da6c7	0.03458288
126	0x3e276d59	0.16350307
127	0xbe956e18	-0.29185557
128	0xbdb42ea1	-0.08797956
129	0x3e54e135	0.20789035
130	0xbc9fde4f	-0.019515185
131	0x3d1dc256	0.03851541
132	0xbd8dc050	-0.06921446
133	0x3d08acf5	0.03336807
134	0xbdbe5a30	-0.09294546
135	0xbe9aec12	-0.30258232
136	0xbb2afee3	-0.0026091866
137	0xbe95690c	-0.29181707
138	0x3e118438	0.14210594
139	0x3d4e91b9	0.05043194
140	0x3d51d37a	0.05122707
141	0xbe1dbc0c	-0.15403765
142	0x3c8e7171	0.017388077
143	0x3d1b3757	0.037894573
144	0xbdebd5f1	-0.115154155
145	0x3d7d7b94	0.06188543
146	0xbd4e971b	-0.050437074
147	0xbe4238c2	-0.18966964
148	0xbcf3c6b0	-0.029757828
149	0xbdb1ed2e	-0.086878166
150	0x3e978b65	0.29598537
151	0xbdf6d611	-0.12052549
152	0x3e7a6912	0.24454144
153	0xbe2c5938	-0.16830909
154	0x3e389527	0.18025647
155	0xbd8c5405	-0.06851963
156	0xbe6843d6	-0.22682127
157	0xbe89b0fe	-0.26892847
158	0xbe5ef396	-0.21772608
159	0xbd4e2c20	-0.05033505
160	0x3c1779a9	0.009245315
161	0x3d715ce9	0.058926497
162	0xbe9124d1	-0.283484
163	0xbdc752ae	-0.09732567
164	0xbdeeb8ba	-0.116563275
165	0x3e245f9b	0.16052096
166	0xba06acea	-0.00051374605
167	0xbdb898aa	-0.09013493
168	0xbd85e505	-0.06537823
169	0x3de7c32b	0.11316522
170	0xbd8ead00	-0.06966591
171	0xbe04c5d5	-0.12966092
172	0x3e79f55f	0.24410008
173	0x3c09755d	0.008389798
174	0x3e1a43f0	0.15064979
175	0x3dd06528	0.10175544
176	0x3f008213	0.5019848
177	0xbea16456	-0.31521863
178	0xbdb93b79	-0.09044547
179	0xbe844684	-0.2583505
180	0x3e73e804	0.23818976
181	0x3dd2b992	0.10289301
182	0x3e17a9a0	0.148108
183	0xbe005e7c	-0.12536043
184	0x3e0a16fa	0.13485327
185	0x3d79d133	0.060990524
186	0xbe5e2d19	-0.21696891
187	0xbd1ad706	-0.03780272
188	0xbe9b7cb1	-0.3036857
189	0x3e2a9677	0.1665896
190	0xbdb5e9a6	-0.088824555
191	0xbbd5eaf4	-0.0065282527
192	0x3da290af	0.079377525
193	0x3e5c557f	0.21516989
194	0xbe497543	-0.19673638
195	0xbdce1cd4	-0.10064092
196	0xbe10263d	-0.14077087
197	0x3d6c1a92	0.057642527
198	0x3e84dd01	0.25949863
199	0xbc56bd0f	-0.0131065985
200	0xbd402635	-0.046911437
201	0x3d88e6ed	0.066846706
202	0x3e55a342	0.20863059
203	0xbce1ecf1	-0.027578803
204	0xbe985eba	-0.2975977
205	0x3e1a13d3	0.15046625
206	0x3d1a1e68	0.037626654
207	0x3eab1b7a	0.334194
208	0x3d1f6cd4	0.038922146
209	0x3e5438c0	0.20724773
210	0x3e7a86b6	0.2446545
211	0xbb007c17	-0.0019605213
212	0xbc99faff	-0.018796442
213	0xbd8f3dfb	-0.06994244
214	0x3d87194d	0.065966226
215	0x3de8eb29	0.11372978
216	0x3b7b4161	0.003833853
217	0x3d832487	0.064034514
218	0x3e3f2cda	0.18669453
219	0xbd858f53	-0.065214776
220	0x3e4ab887	0.19796954
221	0x3e2bcf3f	0.16778277
222	0x3e145a1c	0.14487499
223	0xbdfca306	-0.12335782
224	0xbe5089fd	-0.20365138
225	0x3d98ad33	0.0745491
226	0xbe2a7b36	-0.16648564
227	0xbd54d72b	-0.051963013
228	0xbe33e191	-0.17566516
229	0x3aad672e	0.0013229602
230	0x3c8ee808	0.017444625
231	0x3df1ac44	0.11800435
232	0xbd060a81	-0.03272486
233	0xbe4bab4f	-0.19889568
234	0x3ec58b78	0.3858297
235	0xbd8aeca9	-0.067834206
236	0xbd56d240	-0.052446604
237	0x3dea0e9a	0.11428566
238	0x3db23048	0.08700615
239	0xbe96d3ba	-0.2945841
240	0xbc2aeb2d	-0.010432047
241	0xbd0b6adc	-0.034037456
242	0xbcdee156	-0.027207058
243	0xbe1cbf9f	-0.15307473
244	0xbdde82c2	-0.10864784
245	0xbeee5e93	-0.4655653
246	0x3e5a566d	0.21322031
247	0xbda913fa	-0.08255763
248	0x3e57ab9a	0.21061555
249	0xbc6561ab	-0.014000337
250	0x3dba7da5	0.09105996
251	0x3e4d60c9	0.20056452
252	0x3e1b881d	0.15188642
253	0xbc7d8760	-0.01547417
254	0xbe49d20f	-0.19709037
255	0xbe1233f8	-0.14277637

rnn.weight_hh_l0 f4 [300, 100]
0	0xbf2aeffe	-0.6677245
1	0xbc82a2be	-0.015946742
2	0x3d05ce6a	0.032667555
3	0xbe95e94c	-0.29279554
4	0x3e2986a2	0.16555265
5	0xbe465540	-0.19368458
6	0x3bf0c627	0.0073478404
7	0xbdb49c46	-0.08818869
8	0xbe26df6c	-0.16296166
9	0xbd9345b8	-0.07191032
10	0x3d8aaf40	0.067717075
11	0x3d163e12	0.03668029
12	0xbcadc056	-0.021209877
13	0xbc021aa9	-0.007940927
14	0x3e92bf36	0.28661507
15	0xbe4ab307	-0.19794856
16	0x3cb8a3e5	0.022539089
17	0xbe319be1	-0.1734462
18	0xbd23c763	-0.039985072
19	0x3d0095ed	0.03139298
20	0x3d6a4560	0.057195067
21	0x3e0a5e7c	0.13512605
22	0xbddbb80c	-0.107284635
23	0x3deb73e5	0.114967145
24	0xbe48cf86	-0.19610414
25	0xbe3ec417	-0.1862949
26	0x3ed6acc9	0.419287
27	0x3df71024	0.120636255
28	0xbe515c59	-0.20445384
29	0xbcbb995a	-0.022900272
30	0xbe1f32ec	-0.15546769
31	0xbcc29db1	-0.023756834
32	0x3cdfa188	0.027298704
33	0xbebd6962	-0.36994463
34	0x3e2d9106	0.16949853
35	0xbe67b9d8	-0.22629488
36	0xbe96940b	-0.29409823
37	0x3e5acbae	0.2136676
38	0x3ec6ff6d	0.3886675
39	0x3e1ed939	0.15512551
40	0x3e07f4a7	0.13276921
41	0xbe5b1b68	-0.21397173
42	0x3da13660	0.07871699
43	0x3d22e412	0.039768286
44	0x3e73a70d	0.23794194
45	0x3e0239c7	0.12717353
46	0x3e6ae2a7	0.22938024
47	0x3f4378bc	0.763561
48	0xbeb0e6e4	-0.34551156
49	0x3db19fc5	0.08673052
50	0xbeb8c336	-0.36086434
51	0xbe3c1a6d	-0.18369456
52	0x3e77009d	0.24121328
53	0x3e84681f	0.25860688
54	0x3db80a0c	0.08986291
55	0x3ed75062	0.42053515
56	0x3eb15add	0.34639636
57	0x3eeab7be	0.4584331
58	0xbde51a52	-0.11186661
59	0x3b0e580b	0.0021719958
60	0x3e9faf81	0.31188586
61	0x3ddac1b3	0.106814764
62	0xbd5dc69c	-0.054144487
63	0x3ebd4b0c	0.3697132
64	0xbd61824f	-0.055055913
65	0x3da16c2d	0.07881961
66	0xbe54381f	-0.20724533
67	0x3eb8a90d	0.36066476
68	0xbd182a39	-0.03714964
69	0x3db073ca	0.08615835
70	0xbcd3e733	-0.02586708
71	0xbd05d080	-0.032669544
72	0x3e55c568	0.20876086
73	0xbe5a6aa8	-0.21329749
74	0x3ec51cab	0.38498434
75	0x3e473790	0.19454789
76	0xbeb24a2a	-0.34822208
77	0x3e4e987b	0.20175354
78	0x3e73c5bd	0.238059
79	0x3dc40a89	0.09572322
80	0x3d5f85ed	0.05457108
81	0x3e964c31	0.29355004
82	0x3e143b3a	0.14475718
83	0xbd24ac45	-0.04020335
84	0xbf04f63e	-0.51938236
85	0xbc25e7b6	-0.010126045
86	0xbd9146c3	-0.07093575
87	0x3e261ff9	0.16223134
88	0xbe86166c	-0.26188982
89	0x3ef762d5	0.4831759
90	0x3d40e481	0.04709292
91	0xbe07b19c	-0.13251346
92	0x3dcdfac7	0.100575976
93	0xbd6d3622	-0.057912953
94	0x3dae3d46	0.08507781
95	0xbe124edf	-0.142879
96	0x3c3ba9a4	0.01145402
97	0x3dbd4fd4	0.09243742
98	0xbf8a7b0b	-1.08188
99	0xbd8bc6a5	-0.06824998
100	0x3dc14341	0.09436656
101	0xbe860410	-0.26174974
102	0xbef32646	-0.47490138
103	0xbd01d946	-0.03170135
104	0x3e8fcb6a	0.2808488
105	0xbe5cd530	-0.215657
106	0xbf40abdc	-0.75262237
107	0x3e02f79d	0.1278977
108	0x3e2cb07f	0.16864203
109	0x3f1479ab	0.5799815
110	0x3da58d0e	0.08083545
111	0x3c91439f	0.01773244
112	0x3e86a328	0.26296353
113	0xbcfbcc31	-0.030737014
114	0xbe1278d5	-0.14303906
115	0x3e2a6097	0.16638409
116	0xbeaf4aeb	-0.34236845
117	0xbe0d6939	-0.1380967
118	0xbdaa8451	-0.083260186
119	0xbdce7507	-0.10080915
120	0x3e870d08	0.2637713
121	0x3e2577a9	0.16158928
122	0x3eb630a1	0.35583976
123	0x3ea860b9	0.32886294
124	0xbeb28599	-0.34867552
125	0x3e298403	0.16554265
126	0x3d2a790d	0.04161935
127	0xbe652d70	-0.22380614
128	0xbe98d173	-0.29847297
129	0xbe0161d1	-0.1263497
130	0x3da973b3	0.08274021
131	0xbd8ab053	-0.067719124
132	0xbdc24f60	-0.09487796
133	0x3e41ad37	0.18913732
134	0x3e504178	0.20337474
135	0xbe6c2da6	-0.23064288
136	0xbeeb94f8	-0.46012092
137	0xbe420321	-0.18946506
138	0x3e88c6ce	0.26714176
139	0xbdaf33c6	-0.08554797
140	0xbf420661	-0.75790983
141	0x3e1fe5f9	0.15615071
142	0xbed2966f	-0.41130397
143	0x3e1f7c28	0.15574706
144	0x3d979dd1	0.07403148
145	0xbce119db	-0.02747815
146	0xbd04014f	-0.03222781
147	0xbf074442	-0.5283853
148	0xbbc8ef2a	-0.006132026
149	0xbe9e4f11	-0.30919698
150	0xbcdeda90	-0.027203828
151	0x3e13bf7d	0.14428516
152	0xbd4a09f5	-0.049325902
153	0x3e23f7f2	0.16012552
154	0xbd8c6c5e	-0.06856607
155	0xbde2bd6d	-0.11071286
156	0xbe8b2ab5	-0.2718102
157	0xbec12a29	-0.37727478
158	0xbeef1e4e	-0.46702808
159	0xb9986308	-0.00029065483
160	0xbe57c66c	-0.21071786
161	0xbdffdbb0	-0.12493074
162	0x3deea58c	0.11652669
163	0xbd4bcca5	-0.04975571
164	0xbe5a1304	-0.21296316
165	0xbe417244	-0.18891245
166	0x3f14b170	0.5808325
167	0xbe89c035	-0.26904455
168	0xbcd4b005	-0.025962839
169	0xbeb038c2	-0.34418303
170	0x3db63393	0.08896556
171	0xbe222485	-0.15834244
172	0x3dc73aef	0.097280376
173	0x3df02d74	0.117274195
174	0xbdea8e59	-0.11452932
175	0x3deda3a8	0.116034806
176	0x3e86904f	0.26281974
177	0xbdae9727	-0.08524924
178	0x3ecd3c30	0.40084982
179	0xbc434208	-0.011917599
180	0xbe8b7622	-0.27238566
181	0x3ed63b63	0.41842183
182	0xbe0bf551	-0.136678
183	0x3e56cd0f	0.20976661
184	0xbe92153c	-0.28531826
185	0xbf40a38f	-0.7524957
186	0x3db49dec	0.08819184
187	0xbeb44dd4	-0.35215628
188	0xbd981604	-0.07426074
189	0xbd60b769	-0.054862414
190	0x3db327e4	0.08747843
191	0x3efd4c9f	0.4947252
192	0x3bf6e25a	0.0075343074
193	0x3e866fe2	0.26257235
194	0x3ee478d8	0.44623446
195	0x3c5c7ad4	0.013457019
196	0xbe8f534e	-0.27993244
197	0x3e6926e4	0.22768742
198	0x3eff356a	0.4984544
199	0xbd10ad13	-0.035321306
200	0x3ef82243	0.4846364
201	0x3eb19c11	0.34689382
202	0x3c8a923a	0.01691543
203	0x3df827f6	0.12116997
204	0x3d03c001	0.03216553
205	0x3e4851a0	0.19562387
206	0xbec7e511	-0.3904195
207	0xbde7b0fc	-0.11313054
208	0x3e982146	0.29712886
209	0xbd7717a4	-0.06032528
210	0xbe22ee65	-0.15911253
211	0x3e16910f	0.14703773
212	0x3e4d10bf	0.2002592
213	0xbdbe2d73	-0.092860125
214	0x3ea29565	0.31754604
215	0x3cf63900	0.030056477
216	0xbd8de7ef	-0.069290034
217	0xbd36ee93	-0.044661116
218	0xbe40f80f	-0.18844627
219	0xbe76f0b5	-0.2411526
220	0x3dafeb10	0.085897565
221	0x3de6e0c1	0.11273337
222	0x3e09dd28	0.1346327
223	0xbe37cf66	-0.1795021
224	0xbe6c5824	-0.23080498
225	0x3d0c082d	0.034187485
226	0xbe580812	-0.21096829
227	0xbc2c84f4	-0.010529745
228	0x3e838651	0.25688413
229	0xbbb5c893	-0.005547592
230	0x3e03e921	0.128819
231	0x3e8024b7	0.2502801
232	0xbdb6a8f4	-0.08918944
233	0xbe0906a6	-0.13381442
234	0xbdd250ac	-0.10269293
235	0x3cc8b5bd	0.024500722
236	0xbea3b5c1	-0.31974605
237	0xbe9fbb80	-0.3119774
238	0xbe9b569d	-0.30339518
239	0xbe4e091e	-0.20120665
240	0x3e6567c0	0.22402859
241	0xbe36b83f	-0.17843722
242	0xbd8bc5e7	-0.06824856
243	0x3e4f58cf	0.20248722
244	0xbe45a820	-0.19302416
245	0x3e4bd498	0.19905317
246	0x3d22e4d3	0.039769005
247	0x3cb089a8	0.021550015
248	0x3e4c3fbb	0.19946186
249	0x3cbb8d46	0.022894513
250	0xbed61941	-0.41816142
251	0x3dbc8c95	0.092065014
252	0x3e24ecf0	0.1610601
253	0xbd1a5d09	-0.03768638
254	0xbdd47e3d	-0.103756405
255	0xbefcda11	-0.4938512

rnn.bias_ih_l0 f4 [300]
0	0xbb09a376	-0.0021001971
1	0x3e0e8955	0.13919576
2	0x3c80bbed	0.01571461
3	0x3caa7ce9	0.020811515
4	0x3e844886	0.2583658
5	0x3e046414	0.12928802
6	0x3e2fb7f1	0.17160012
7	0x3d9f2c11	0.07772077
8	0xbd82b0bc	-0.06381366
9	0x3c2af99a	0.010435486
10	0x3e479d43	0.19493584
11	0x3da11623	0.0786555
12	0x3e1741ed	0.14771242
13	0x3ddbf85f	0.107407324
14	0x3dd9eb9b	0.10640641
15	0x3e04309f	0.12909172
16	0x3e28349f	0.16426323
17	0x3e0e1e49	0.1387874
18	0x3d2af6aa	0.041739143
19	0x3dca769f	0.098859064
20	0x3e6e2c6e	0.23259136
21	0x3e8905f8	0.26762366
22	0x3e5d6a80	0.21622658
23	0x3e362599	0.1778778
24	0x3d9b892a	0.07594521
25	0x3e93b6eb	0.28850493
26	0x3c933cd3	0.01797334
27	0x3c45aed6	0.01206561
28	0x3c2f3526	0.010693824
29	0x3dc0b046	0.094086215
30	0x3d801d7c	0.06255624
31	0x3e5dba4f	0.21653102
32	0x3c0b991a	0.008520389
33	0xbcfa1c28	-0.030531004
34	0x3dec85d9	0.11548967
35	0x3df6b9ff	0.12047195
36	0xbdbce75b	-0.09223815
37	0x3dd1ad0c	0.10238084
38	0x3e1d5b6b	0.15366904
39	0x3d796004	0.060882583
40	0x3e8667ee	0.26251167
41	0x3e061377	0.13093363
42	0x3dd8c511	0.105844624
43	0xbe197594	-0.14986259
44	0x3d69eab3	0.057108592
45	0xbde556aa	-0.111981705
46	0x3e88e59b	0.26737675
47	0x3d6cefaa	0.05784575
48	0x3cb8af85	0.022544632
49	0x3e2bcd0a	0.16777435
50	0x3e175710	0.14779305
51	0x3e160643	0.14650826
52	0x3da7d8fe	0.08195685
53	0xbe72ec46	-0.23722944
54	0x3dad671c	0.08466932
55	0xbe0dc450	-0.13844419
56	0x3daf3989	0.08555896
57	0x3da12d44	0.07869962
58	0x3d4486d0	0.04798013
59	0x3e2ac6cf	0.16677402
60	0x3e39a6ac	0.18129987
61	0x3c958f03	0.01825667
62	0x3e2fcb28	0.17167342
63	0xbd6001f9	-0.05468938
64	0x3e1dd698	0.15413892
65	0x3df1e7da	0.118118
66	0x3d515b5f	0.05111253
67	0x3e144550	0.14479566
68	0x3e01e941	0.12686636
69	0x3e2b1b44	0.1670962
70	0x3ba67cd9	0.005080801
71	0x3de95c8f	0.11394607
72	0x3dbf3bcc	0.09337577
73	0x3e0a2fb2	0.13494757
74	0x3dec4bc3	0.11537888
75	0x3dd490e5	0.10379199
76	0x3de4e162	0.11175801
77	0x3d579aae	0.05263775
78	0x3d958b2e	0.07301937
79	0xbb9c6e73	-0.0047739088
80	0x3e627737	0.2211579
81	0x3e536f39	0.20647897
82	0x3d7d264a	0.061804093
83	0x3e867d27	0.2626736
84	0x3e1b9cc9	0.15196528
85	0x3de33153	0.11093392
86	0x3d09d5b3	0.033651065
87	0x3ddb65bc	0.10712764
88	0x3e182648	0.14858353
89	0x3e0711e7	0.13190423
90	0x3dda2285	0.10651115
91	0x3da2c5b2	0.07947864
92	0x3e18444e	0.14869806
93	0x3e2ffa0f	0.17185234
94	0x3e12b947	0.1432849
95	0x3d1565f9	0.0364742
96	0x3dc884bb	0.09790941
97	0x3dace0fd	0.084413506
98	0x3e1aeb0f	0.1512873
99	0x3e1e93ff	0.15486144
100	0xbaeffaed	-0.0018309035
101	0xbdbec09b	-0.0931408
102	0xbe2c9e11	-0.16857173
103	0xbe55c0a6	-0.20874271
104	0xbd02da40	-0.03194642
105	0xbe2aa646	-0.16664991
106	0xbe8d887a	-0.27643186
107	0xbda11d12	-0.07866873
108	0xbe2f7922	-0.17136052
109	0xbe4428ac	-0.1915614
110	0xbc635b56	-0.013876757
111	0xbec538fb	-0.38520035
112	0xbecccabe	-0.3999843
113	0xbe0c22e3	-0.13685183
114	0xbe82c132	-0.2553802
115	0xbeab3a87	-0.3344309
116	0xbd5d24f5	-0.053990323
117	0xbea8f7eb	-0.33001646
118	0xbe0eb73f	-0.1393709
119	0xbe34b339	-0.17646493
120	0xbe7cc24f	-0.24683498
121	0xbe6cfbce	-0.23142931
122	0xbde25e6b	-0.11053165
123	0xbe8002b8	-0.25002074
124	0xbdbc38d7	-0.09190529
125	0xbe449758	-0.19198358
126	0xbe094953	-0.13406877
127	0xbea92158	-0.33033252
128	0xbe5a9e04	-0.2134934
129	0xbca805f6	-0.020510655
130	0xbe2a6650	-0.16640592
131	0xbdb6862d	-0.08912311
132	0xbea0bcc6	-0.31394023
133	0xbe44e493	-0.19227819
134	0xbeb22a6b	-0.34797987
135	0xbd5e0602	-0.05420495
136	0xbda88daf	-0.08230149
137	0xbcbce570	-0.023058623
138	0x3daa4d6d	0.08315549
139	0x3c76efd9	0.015071833
140	0xbe946b1e	-0.28987974
141	0xbe25a2b8	-0.16175354
142	0xbe36369b	-0.17794268
143	0xbdd19242	-0.102329746
144	0xbdbbef3e	-0.09176491
145	0xbe81aa60	-0.25325298
146	0xbed76ee5	-0.42076793
147	0xbe2f42ab	-0.17115276
148	0xbea3e76f	-0.32012507
149	0x3e056333	0.13026123
150	0xbe5f4933	-0.21805267
151	0xbe407af1	-0.18796898
152	0xbda5690d	-0.080766775
153	0xbe28e0c1	-0.16491987
154	0xbe00bcfb	-0.1257209
155	0xbd81f6a4	-0.06345871
156	0x3ca81c00	0.020521164
157	0xbac9e29b	-0.0015402617
158	0xbe53acab	-0.20671336
159	0xbe6320e8	-0.22180521
160	0xbe8673ee	-0.26260322
161	0xbe857ae1	-0.26070312
162	0xbe2bb68d	-0.16768856
163	0xbe81d023	-0.25354108
164	0x3e16037e	0.1464977
165	0xbe103185	-0.1408139
166	0xbe8a8c4f	-0.27060172
167	0xbe573407	-0.2101594
168	0xbdaffe18	-0.085933864
169	0xbe1ab8b8	-0.15109527
170	0xbe5085f2	-0.20363596
171	0xbdda74bb	-0.10666796
172	0xbe680358	-0.22657526
173	0xbebdca95	-0.3706862
174	0xbe61327a	-0.21991912
175	0x3ba589c5	0.005051824
176	0xbe91671f	-0.28398988
177	0xbe1c62b2	-0.15272024
178	0xbe430dce	-0.19048235
179	0xbe3cb425	-0.18428095
180	0x3d01c0a7	0.03167787
181	0xbd84596b	-0.064623676
182	0xbd90d577	-0.07071965
183	0xbe752afd	-0.2394218
184	0xbe0ff3c3	-0.14057831
185	0xbdc9940d	-0.098426916
186	0xbe4d78d1	-0.20065619
187	0xbe94efb7	-0.29089138
188	0xbe8912f5	-0.26772276
189	0xbe8ba640	-0.27275276
190	0xbcde634a	-0.027146954
191	0xbe0fcca9	-0.14042915
192	0xbe33a34f	-0.17542766
193	0xbd52519e	-0.051347367
194	0xbe3ffb55	-0.1874822
195	0xbe6793d3	-0.22614984
196	0xbe134fcc	-0.14385909
197	0x3c990fdd	0.018684322
198	0xbe70c19c	-0.23511356
199	0xbe96040c	-0.29299963
200	0x3a9dfb0a	0.0012052965
201	0x3d5e1c1d	0.05422603
202	0x3e3678a4	0.17819458
203	0xbe2013e1	-0.15632583
204	0x3dbace91	0.09121431
205	0xbc9bd058	-0.019020244
206	0xbddbdf90	-0.107360005
207	0x3cd500c5	0.026001344
208	0xbc805bea	-0.015668828
209	0x3d9d5391	0.07681955
210	0x3c09c30f	0.008408322
211	0x3b1db0de	0.002406172
212	0x3df4341e	0.11924003
213	0x3e0209ff	0.12699126
214	0xbdbbfa47	-0.09178596
215	0x3dcef7d2	0.10105862
216	0x3e074ca1	0.13212825
217	0x3d18ad0d	0.03727441
218	0xbd5c8ea2	-0.053846963
219	0xbddb29ae	-0.10701309
220	0xbdd01f81	-0.10162259
221	0x3e39da56	0.18149695
222	0x3e09d9ef	0.13462041
223	0xbdb5b1eb	-0.08871826
224	0x3e006329	0.12537827
225	0xbe1dfccc	-0.15428466
226	0xbdee4d3c	-0.11635825
227	0xbc64cf52	-0.013965445
228	0xbe531202	-0.20612338
229	0x3d4ade05	0.04952814
230	0x3d933cec	0.07189354
231	0xbd96804a	-0.07348688
232	0x3d4b3b0f	0.04961687
233	0xbca04026	-0.019561838
234	0x3d8059f9	0.06267161
235	0xbccc5fce	-0.024948027
236	0x3dc96e52	0.09835495
237	0xbe037498	-0.12837446
238	0xbd34cfc1	-0.044143442
239	0x3debc8b3	0.1151289
240	0x3d69fd47	0.05712631
241	0xbe0cbf4e	-0.13744852
242	0xbdda63fd	-0.106636025
243	0x3d06c4c3	0.03290249
244	0xbe0320bc	-0.12805456
245	0x3da73ec8	0.081662714
246	0x3dbe9d66	0.09307365
247	0x3d0438b0	0.032280624
248	0x3ca21292	0.019784246
249	0xbde7ccb4	-0.11318341
250	0x3dd74599	0.105113216
251	0xbcc507df	-0.024051605
252	0xbccab268	-0.024743274
253	0xbcd1c0e7	-0.025604678
254	0xbd0082b4	-0.03137465
255	0xbcb6c93f	-0.022312758

rnn.bias_hh_l0 f4 [300]
0	0x3d681403	0.05665971
1	0x3c414508	0.0117962435
2	0x3dbfc734	0.09364167
3	0xbb33f40f	-0.0027458703
4	0x3e25e7c9	0.162017
5	0x3e083337	0.13300787
6	0x3d975f2a	0.07391198
7	0xbcd3e281	-0.025864841
8	0xbe0d07a9	-0.13772453
9	0x3bc0177a	0.0058621736
10	0x3e2985f5	0.16555007
11	0x3e73ceae	0.23809311
12	0x3e0dd6f4	0.1385153
13	0x3e8fc743	0.28081712
14	0x3e6620c4	0.22473437
15	0x3d28736f	0.04112571
16	0x3ca3d6ca	0.01999988
17	0x3e151908	0.1456033
18	0x3e00c1e5	0.12573965
19	0x3deda0db	0.11602946
20	0x3e5a9b14	0.2134822
21	0x3dbe6afd	0.0929775
22	0x3e508b3d	0.20365615
23	0x3d717b69	0.058955584
24	0x3e018295	0.1264747
25	0x3e1492bb	0.14509098
26	0x3d176550	0.036961854
27	0xbdba5449	-0.09098107
28	0x3d07eb96	0.033183657
29	0x3dbd3953	0.09239449
30	0xbd45e264	-0.048311606
31	0x3e1a0974	0.15042669
32	0x3da88412	0.082283154
33	0x3da35531	0.07975233
34	0x3e2229b2	0.15836218
35	0x3e15e92f	0.14639734
36	0xbd9118de	-0.07084821
37	0x3cf7b65d	0.030238325
38	0x3d8bd0c1	0.06826926
39	0xbd28be40	-0.04119706
40	0x3e194ecd	0.14971466
41	0x3d94d4a9	0.07267124
42	0xbd1533aa	-0.036426224
43	0xbce54385	-0.027986297
44	0x3d10b024	0.03532423
45	0xbcf2f043	-0.029655581
46	0x3e25351f	0.16133545
47	0xbddf436c	-0.109015316
48	0x3e2023c3	0.15638642
49	0x3d433347	0.047656324
50	0x3e4e5a2b	0.20151584
51	0x3dc0a8aa	0.0940717
52	0x3df2aeac	0.11849722
53	0xbe6a986a	-0.22909704
54	0x3dd56d85	0.1042128
55	0xbc627ae1	-0.013823242
56	0x3da03717	0.078230076
57	0x3e02663b	0.1273431
58	0x3dbf3bc4	0.09337571
59	0x3e3ff11b	0.18744318
60	0x3d8098f5	0.06279174
61	0x3d1cdd1f	0.038296815
62	0x3e9fbbc7	0.3119795
63	0x3da90abc	0.082540005
64	0x3dbedcd8	0.09319466
65	0x3e1ce836	0.15322956
66	0x3e2eaebf	0.17058848
67	0x3dedcee3	0.11611726
68	0x3d894450	0.06702483
69	0x3e17fef2	0.14843348
70	0xbd056cfa	-0.03257463
71	0x3e3b513e	0.1829271
72	0x3c3c0712	0.011476295
73	0x3b08f6a2	0.0020898958
74	0x3e52277c	0.20522875
75	0x3e131234	0.14362413
76	0x3e2a376a	0.16622701
77	0x3e162b1c	0.14664882
78	0x3dca883a	0.098892644
79	0x3e1f6d30	0.15568995
80	0x3dd3c955	0.103411354
81	0x3e0ef758	0.13961542
82	0x3da0ad36	0.07845537
83	0x3e8b4245	0.27198997
84	0x3df07a93	0.11742129
85	0x3e01cf5d	0.12676759
86	0x3da4335e	0.0801761
87	0x3e0db75e	0.1383948
88	0x3e5efa71	0.21775223
89	0x3e925742	0.28582197
90	0x3e141769	0.14462055
91	0x3db2bfb8	0.08727974
92	0x3d7a8993	0.061166357
93	0x3e1b349c	0.15156788
94	0x3e22824b	0.15870015
95	0xbe1f64fb	-0.15565865
96	0xbca16dca	-0.019705672
97	0x3dc16bda	0.09444399
98	0x3e54d084	0.20782667
99	0x3dbc131e	0.09183334
100	0x3cac1141	0.021004321
101	0xbdbe09f3	-0.092792414
102	0xbd3fd244	-0.046831384
103	0xbe4b947b	-0.1988086
104	0xbe22ab7c	-0.15885729
105	0xbddf5960	-0.10905719
106	0xbea958d9	-0.33075598
107	0x3d23cebf	0.03999209
108	0xbe19e21a	-0.15027657
109	0xbe363143	-0.1779223
110	0xbd8bd3da	-0.06827517
111	0xbe94cfa5	-0.2906467
112	0xbe90b95b	-0.28266415
113	0xbe8d7483	-0.27627954
114	0xbe56d11f	-0.20978211
115	0xbe775696	-0.24154124
116	0xbde20a24	-0.110370904
117	0xbea47bf1	-0.3212581
118	0xbe0c2a58	-0.13688028
119	0xbe6b9a54	-0.2300809
120	0xbebe4520	-0.37162113
121	0xbd6894bc	-0.05678247
122	0xbe7b1a75	-0.24521811
123	0xbe8f127f	-0.279438
124	0xbdeb4608	-0.11487967
125	0xbe469adb	-0.1939501
126	0xbe11466f	-0.14187025
127	0xbead7a4b	-0.33882365
128	0xbe4b8956	-0.19876608
129	0xbce9d190	-0.02854231
130	0xbdfe6676	-0.124218866
131	0xbdba2ab9	-0.0909018
132	0xbe2768f3	-0.16348629
133	0xbe196294	-0.14979011
134	0xbeab6164	-0.3347274
135	0xbd0a335a	-0.03374038
136	0xbde24a7f	-0.11049365
137	0xbdbbd466	-0.09171371
138	0x3d940cda	0.07229014
139	0xbc09af5f	-0.008403628
140	0xbe2d6b85	-0.16935547
141	0xbdf980eb	-0.12182792
142	0xbe34d481	-0.17659189
143	0xbd5c5178	-0.053788632
144	0xbe5acbed	-0.21366854
145	0xbe37385e	-0.17892596
146	0xbe8707d0	-0.26373148
147	0xbe54a0b3	-0.20764427
148	0xbeba388b	-0.36371264
149	0x3d91e247	0.07123237
150	0xbe9a7ed3	-0.30174884
151	0xbe5b1295	-0.21393807
152	0xbd990876	-0.07472317
153	0xbe1da46e	-0.15394756
154	0xbd04096f	-0.03223556
155	0xbd2e08ab	-0.042488735
156	0xbc8dc18f	-0.01730421
157	0x3d43c90d	0.04779916
158	0xbe9e90b6	-0.3096978
159	0xbdc6b9f3	-0.09703436
160	0xbe842858	-0.2581203
161	0xbe550f6b	-0.20806663
162	0xbe747e48	-0.23876297
163	0xbe0cb20d	-0.13739796
164	0x3e2af99b	0.1669678
165	0xbd93d34f	-0.07218038
166	0xbe4654f8	-0.1936835
167	0xbe236d58	-0.1595968
168	0xbe2f9e78	-0.17150295
169	0xbe8fc4eb	-0.28079924
170	0xbe6630ff	-0.22479628
171	0xbd7026f2	-0.05863089
172	0xbdc388df	-0.095475905
173	0xbe5548b8	-0.20828521
174	0xbe89f4b0	-0.26944494
175	0xbbafa212	-0.0053598965
176	0xbe2e7f42	-0.17040733
177	0xbe1fc1fb	-0.15601341
178	0xbe4606ea	-0.19338575
179	0xbea3693b	-0.31916222
180	0x3e0a5c5c	0.13511795
181	0xbd85ab85	-0.065268554
182	0xbd4992ae	-0.04921215
183	0xbe12d43f	-0.14338778
184	0xbe81159d	-0.25211802
185	0xbe168373	-0.14698581
186	0xbe3809c6	-0.17972478
187	0xbea7658e	-0.32694668
188	0xbe8806c0	-0.2656765
189	0xbe216dc4	-0.15764529
190	0xbbc4a444	-0.0060010273
191	0xbe6a3954	-0.22873431
192	0xbe1d116e	-0.1533868
193	0xbdf05d6e	-0.1173657
194	0xbd495b65	-0.049159426
195	0xbe507704	-0.20357901
196	0xbe1464c0	-0.14491558
197	0xbd819f73	-0.06329241
198	0xbe439e62	-0.19103387
199	0xbec0cc78	-0.37655997
200	0x3d98de6a	0.07464297
201	0x3e88f8c5	0.26752296
202	0x3df82e4b	0.12118205
203	0x3dcaf736	0.09910433
204	0x3e9b99f1	0.30390885
205	0x3dab2499	0.0835659
206	0xbe39324e	-0.18085596
207	0xbe1f7b1f	-0.1557431
208	0x3d6e2f6e	0.0581507
209	0xbe1516bb	-0.14559452
210	0xbee76c24	-0.45199692
211	0x3e8b9de4	0.27268898
212	0x3e0047aa	0.12527338
213	0x3ebc9d09	0.36838558
214	0xbe9b58a2	-0.3034106
215	0xbd8a2fa0	-0.06747365
216	0xbe33a94b	-0.17545049
217	0xbee12206	-0.4397127
218	0xbeabd643	-0.33561906
219	0xbe3d140b	-0.18464677
220	0x3edd2f23	0.43200025
221	0x3eadcd2b	0.33945593
222	0x3e380b1e	0.17972991
223	0xbdd2a779	-0.10285849
224	0x3dbced99	0.09225006
225	0xbe92a1a7	-0.28638956
226	0xbd44d39c	-0.04805337
227	0xbe0c99e9	-0.13730587
228	0x3ea6f077	0.32605335
229	0x3e1e9e59	0.15490092
230	0x3d9d3034	0.0767521
231	0x3db28946	0.08717589
232	0xbd788a73	-0.06067891
233	0xbe2a735a	-0.16645566
234	0xb8f8ebc1	-0.00011869474
235	0x3ce79fcb	0.028274437
236	0xbc95b8c5	-0.018276582
237	0x3dd2e11f	0.10296845
238	0x3e7df776	0.2480143
239	0xbe45df0e	-0.1932337
240	0xbed69106	-0.4190752
241	0xbe86176e	-0.2618975
242	0x3e98dc2c	0.29855478
243	0x3d25dcf2	0.040493913
244	0xbe131b08	-0.1436578
245	0xbe91049e	-0.28323835
246	0x3ea97aa5	0.33101383
247	0xbe4f913d	-0.20270248
248	0xbe02f287	-0.1278783
249	0xbe710801	-0.2353821
250	0x3eac1e19	0.33616713
251	0xbc80bafc	-0.015714161
252	0xbe97d6b8	-0.29656005
253	0xbc95a4d7	-0.018267078
254	0xbf08dcda	-0.5346199
255	0xbd10ab8d	-0.035319854

fc.weight f4 [56, 100]
0	0xbead29db	-0.33820996
1	0xbebe55a8	-0.37174726
2	0xbf553b77	-0.8329386
3	0x3ea5df11	0.3239675
4	0xbf408fd6	-0.75219476
5	0xbe235f55	-0.15954335
6	0x3ed206d7	0.41020843
7	0xbe017ba9	-0.12644829
8	0x3e2f2711	0.17104746
9	0x3d81fd7d	0.06347177
10	0x3f8936a0	1.0719795
11	0xbe96db7c	-0.29464328
12	0xbe80528f	-0.25062987
13	0xbead506a	-0.33850414
14	0x3ec4196a	0.3830064
15	0xbebc58f3	-0.36786613
16	0xbee92763	-0.45537862
17	0xbe38e941	-0.1805773
18	0x3f1819e5	0.5941451
19	0x3ecb74d9	0.39737585
20	0xbf75de2c	-0.9604213
21	0xbf790b4e	-0.97282875
22	0xbf50ac7b	-0.81513184
23	0x3f5a75aa	0.8533579
24	0xbeaecc3e	-0.341402
25	0x3e31f219	0.17377509
26	0xbd52ecaf	-0.05149525
27	0xbe8db709	-0.27678707
28	0xbda5cccd	-0.08095703
29	0xbf004558	-0.5010581
30	0xbe0cc423	-0.13746695
31	0x3f05ffd4	0.5234349
32	0xbe7f20e6	-0.24914894
33	0xbd9d7d8f	-0.07689964
34	0x3e087735	0.13326724
35	0xbd9270e8	-0.071504414
36	0x3f1587d1	0.58410364
37	0xbf218aec	-0.631026
38	0xbd8373fa	-0.06418605
39	0xbea8fc3d	-0.33004943
40	0x3f322f46	0.69603384
41	0x3f08734a	0.5330092
42	0xbe0d9c07	-0.13829051
43	0xbe928477	-0.28616688
44	0x3e91fc0c	0.2851261
45	0xbefe153e	-0.49625582
46	0xbf10e520	-0.56599617
47	0x3e6b31da	0.22968236
48	0xbe07adfa	-0.1324996
49	0x3ed5562a	0.416673
50	0xbd26cd00	-0.040722847
51	0x3dd8da96	0.10588567
52	0x3ecafe02	0.39646918
53	0x3e01083c	0.12600797
54	0x3dd02127	0.10162573
55	0x3dae4ffd	0.0851135
56	0x3ed76357	0.42067978
57	0x3f4158c3	0.75526065
58	0xbf432894	-0.7623379
59	0xbe346336	-0.17615971
60	0xbe3fb4b1	-0.18721272
61	0x3e95d595	0.29264513
62	0x3d52f9df	0.051507827
63	0xbd860b74	-0.06545153
64	0xbf884d6d	-1.0648628
65	0xbd654013	-0.05596931
66	0xbf00fa49	-0.50381905
67	0xbf2769d2	-0.65395844
68	0x3dc5c556	0.096567795
69	0x3d36c0de	0.044617526
70	0x3efa1eb5	0.48851553
71	0x3f29239a	0.6606995
72	0x3e0a037c	0.13477892
73	0xbe6996b0	-0.22811389
74	0x3e3895f6	0.18025956
75	0xbf180a19	-0.5939041
76	0x3a264ec0	0.0006344132
77	0x3e27a296	0.16370615
78	0x3e063fcd	0.13110276
79	0xbec1ba8b	-0.37837633
80	0x3eef56e6	0.46745986
81	0xbd949f2f	-0.07256924
82	0xbe8a854a	-0.27054816
83	0xbca8434e	-0.020539906
84	0xbf4781af	-0.77932256
85	0x3dc0779c	0.09397814
86	0x3e9b85a0	0.30375385
87	0xbd9005dc	-0.070323676
88	0x3ec15b33	0.37764892
89	0xbf02f98c	-0.5116203
90	0xbeacaba6	-0.33724707
91	0x3ef56668	0.47929692
92	0xbea82297	-0.3283889
93	0x3d7c3356	0.061572395
94	0xbc00a551	-0.0078519145
95	0xbef2e062	-0.47436816
96	0x3f0935c5	0.5359767
97	0xbe0e891b	-0.13919489
98	0x3f0fafa1	0.56127363
99	0xbf8f07b4	-1.1174226
100	0xbd8a6846	-0.0675817
101	0xbb96ed85	-0.0046059513
102	0x3d9b5369	0.075842686
103	0x3eac17ba	0.33611852
104	0xbda13e35	-0.07873193
105	0xbe3f206f	-0.18664716
106	0x3e7cd7a6	0.24691638
107	0x3d9c41f4	0.07629767
108	0xbd780fb7	-0.06056186
109	0xbe1bd0d2	-0.15216377
110	0x3f1705d0	0.58993244
111	0xbe4aa3eb	-0.19789092
112	0xbe689c9e	-0.22715995
113	0xbe732f48	-0.23748505
114	0x3eba4bd8	0.3638599
115	0xbe5ed08d	-0.21759243
116	0x3d04f26c	0.032457754
117	0x3e220ebe	0.15825936
118	0x3ea8a793	0.3294035
119	0xbd65e4d4	-0.05612643
120	0xbe777b56	-0.24168143
121	0xbed149d0	-0.40876627
122	0xbe8ca456	-0.27469128
123	0x3e937f3c	0.2880801
124	0xbe40e8bf	-0.18838786
125	0x3e4d344a	0.20039478
126	0xbc09abb6	-0.0084027555
127	0x3d8fe7ec	0.070266575
128	0xbe1a2844	-0.15054423
129	0x3ca5df60	0.020248115
130	0xbe1352c8	-0.14387047
131	0xbdab1269	-0.08353121
132	0xbed85b2f	-0.42257068
133	0x3e517e60	0.20458364
134	0xbd1d49ba	-0.03840039
135	0x3d9b7137	0.075899534
136	0x3e2b961d	0.16756482
137	0x3c685ced	0.0141823115
138	0xbd722c77	-0.059124436
139	0x3d34ae63	0.04411162
140	0x3f0a9d02	0.54145825
141	0xbc04e60e	-0.00811149
142	0xbe06c98a	-0.13162819
143	0x3dc2da10	0.09514248
144	0xbd85b6ee	-0.06529032
145	0xbddbeb1d	-0.10738204
146	0xbe9bdb1a	-0.304406
147	0x3e92da95	0.2868239
148	0xbddfa43b	-0.10919996
149	0xbc444ec8	-0.011981674
150	0xbe412164	-0.18860394
151	0xbe2f9622	-0.17147115
152	0x3dabbf3c	0.083860844
153	0x3dc0aa82	0.09407522
154	0x3e4a4b22	0.19755223
155	0xbd9490cf	-0.072541825
156	0x3e703f4b	0.23461644
157	0x3bd3228f	0.0064433287
158	0x3d27971c	0.040915594
159	0xbe701d47	-0.23448668
160	0xbe8db7e7	-0.2767937
161	0x3e3c41c0	0.18384457
162	0x3e5e482d	0.2170722
163	0xbd9395f1	-0.072063334
164	0xbde32f7a	-0.1109304
165	0xbe1de6c2	-0.15420058
166	0xbe90443b	-0.28177056
167	0xbbef1921	-0.007296697
168	0xbdc32d65	-0.09530143
169	0xbe3b3748	-0.18282807
170	0x3e8ca3dd	0.27468768
171	0x3e6bebb5	0.23039134
172	0xbe0cb334	-0.13740236
173	0x3e63128b	0.22175042
174	0x3e1da27b	0.15394013
175	0xbe307e3f	-0.17235659
176	0x3e2d4a31	0.16922833
177	0xbe50c43a	-0.20387354
178	0xbe2003ab	-0.15626399
179	0xbee3d69c	-0.4449967
180	0x3e6e26a8	0.23256934
181	0xbbfe8dbe	-0.007768362
182	0xbe6c8d30	-0.23100734
183	0x3e4bc24b	0.19898336
184	0xbbf4bc7d	-0.0074687586
185	0x3d498b75	0.049205262
186	0xbd06736d	-0.032824922
187	0xbe35db59	-0.17759456
188	0xbdb2dc41	-0.08733416
189	0xbe92f5e9	-0.2870324
190	0xbd05e2de	-0.03268706
191	0xbd932f1c	-0.0718672
192	0x3c82b830	0.015956968
193	0xbe1920f9	-0.14953984
194	0xbe483f70	-0.1955545
195	0x3da1a5c6	0.07892947
196	0xbdb4c6a5	-0.08826951
197	0x3d2558c5	0.04036786
198	0xbd6c0641	-0.05762315
199	0xbe01377b	-0.1261882
200	0x3d3a470e	0.04547792
201	0xbe2cacb1	-0.16862752
202	0xbdae3642	-0.085064426
203	0xbe27d135	-0.163884
204	0x3e8d0b22	0.27547556
205	0xbdc83361	-0.09775425
206	0x3d4b886b	0.049690645
207	0xbc7a0f24	-0.015262399
208	0xbbbf9c19	-0.0058474657
209	0x3ea96375	0.33083692
210	0xbe1f3f14	-0.15551406
211	0x3e4eeb2d	0.202069
212	0x3e6227ff	0.2208557
213	0x3e79a050	0.2437756
214	0xbe6db7e7	-0.23214684
215	0x3e0b1b79	0.13584699
216	0x3e428266	0.18995056
217	0xbbc81f2b	-0.006107231
218	0xbd625f1a	-0.055266477
219	0xbe8a83a5	-0.27053562
220	0x3cf0e3df	0.029405532
221	0x3e50829a	0.2036232
222	0x3e1009ef	0.1406629
223	0xbdc6595d	-0.096850134
224	0xbd1dc9f2	-0.03852267
225	0xbd4fd0a7	-0.050736096
226	0xbe7163fd	-0.23573299
227	0xbd064d9a	-0.03278885
228	0x3e6795e0	0.22615767
229	0x3d2b6c2a	0.0418512
230	0xbe685c34	-0.22691423
231	0x3d26fdbf	0.040769335
232	0x3de3d79f	0.11125111
233	0xbcf00830	-0.02930078
234	0xbec9d09e	-0.39416975
235	0xbd91fe0b	-0.07128533
236	0x3d833b73	0.064078234
237	0x3c4f1a7d	0.012640593
238	0xbd02a930	-0.03189963
239	0xbd7caa2b	-0.061685722
240	0xbddd4243	-0.10803654
241	0xbecd78d8	-0.4013126
242	0xbb6b336e	-0.0035888809
243	0x3c093fc0	0.008377016
244	0xbe89a7c0	-0.26885796
245	0x3dab5ede	0.08367704
246	0x3e187c69	0.14891209
247	0xbe235ba4	-0.15952927
248	0xbe27df7d	-0.16393848
249	0xbe03349c	-0.12813038
250	0x3e6c8ecf	0.23101352
251	0x3dc5f22c	0.09665331
252	0xbdeef8f5	-0.116685785
253	0x3da1d9cf	0.07902872
254	0xbe61e0b5	-0.22058375
255	0xbcc0b867	-0.02352543

fc.bias f4 [56]
0	0xc007f9f6	-2.1246314
1	0xbcc21918	-0.023693606
2	0x3e9619b6	0.2931649
3	0xbcc241b7	-0.023712976
4	0x3eb6f092	0.35730416
5	0x3eb57439	0.35440233
6	0x3ea2e9af	0.3181891
7	0x3e52e525	0.20595224
8	0xbe0f11d8	-0.1397165
9	0x3e8b1249	0.27162388
10	0xbdb709d0	-0.089374185
11	0x3e614188	0.21997654
12	0x3c6b7e41	0.014373363
13	0x3e0ab48b	0.13545434
14	0xbcafceac	-0.021460854
15	0xbe513051	-0.20428587
16	0x3dad96a3	0.08475997
17	0xbddaf427	-0.106910996
18	0x3d935c98	0.07195395
19	0xbe16f938	-0.14743507
20	0xbe8bfb8c	-0.27340353
21	0xbeb484ae	-0.35257477
22	0xbf189540	-0.5960274
23	0xbe8424aa	-0.25809222
24	0xbf1c980f	-0.61169523
25	0xbf10055c	-0.5625818
26	0xbeb36ba8	-0.35043073
27	0xbdbe8a7a	-0.09303756
28	0xbd574b76	-0.0525622
29	0xbddf6bea	-0.10909255
30	0xbf4525a9	-0.7701059
31	0xbe7ca2aa	-0.24671426
32	0xbe196e70	-0.14983535
33	0xbe28c4d8	-0.1648134
34	0xbdc570e6	-0.09640674
35	0xbf5a54b1	-0.8528548
36	0xbdb39166	-0.08767967
37	0xbe4f7607	-0.20259868
38	0xbe30902c	-0.17242497
39	0xbdf01755	-0.117232
40	0xbda371c6	-0.07980685
41	0xbe986d6e	-0.29770988
42	0xbe2d42f7	-0.16920076
43	0xbe53eac1	-0.2069502
44	0xbebca399	-0.36843565
45	0xbd7b402a	-0.06134049
46	0xbcf01245	-0.029305587
47	0xbd1ebe6d	-0.038755823
48	0xbe9b3b72	-0.3031879
49	0xbe728e3e	-0.23687074
50	0xbe2ddb9d	-0.16978307
51	0xbebc1354	-0.36733496
52	0xbee6dc51	-0.45089963
53	0xbe8407ad	-0.25787106
54	0xc0053a02	-2.0816655
55	0x3e8f6fdb	0.28015026
