male_name_generator_better.pt (torch, 353487 bytes, 11 tensors)

init_hidden.1.weight f4 [100, 56]
00000000: 288c f13c 6085 9a3c e49d 38bd 3e31 f8bd
00000010: e609 ca3d 4053 8d3b a2ef ba3d d015 95bd
00000020: f65a 833d 327b cbbd 1c23 29bd 009d e3bb
00000030: 6c66 d73d f5af 92bd aac6 913d 54ca 033d
00000040: 1897 cd3c a84f 1bbd 083c 7a3d 6472 a5bd
00000050: 0073 883d 6cf3 043d c85a 9c3c 80dd 5a3d
00000060: 306c 943d 7ad5 cf3d eaf9 b73d f2bc aa3d
00000070: 9c64 b33d 98f1 0b3d 1ee0 c93d fe09 fa3d
00000080: 5ba5 033e 4bba 8ebd 4781 073e 044d e93d
00000090: 8c9f 283d 6cbe aa3d 26c1 e1bd 0470 8ebc
000000a0: f0f9 a23c e4b5 473d 384e d43c 9cd5 d4bc
000000b0: 607d 0a3d d2a1 d3bd 40ab 5b3d 9348 013e
000000c0: 7a11 f23d 8467 abbd da4d 8ebd fabd a63d
000000d0: 138e bebd 6c53 edbd 76a1 90bd 8012 c93d
000000e0: 7905 203d de53 a13f 3592 bb3d 1e33 9f3c
000000f0: 5631 ccbd f2f5 9abd 7bc7 a7bc 0dad 0e3b
00000100: 2ed5 8d3d 34b1 49bd f8e0 f53d f4b3 d53d
00000110: eba5 373d 4e5e 023e ea1d d73d a920 963d
00000120: 6f97 9f3d 5552 06be a1ba e5bd 4f35 9a3d
00000130: ba8c 01be 9b1f 4c3b d450 f13d 3791 8dbd
00000140: 869e b6bc 1096 cdbd 8233 d4bd 9458 b9bf
00000150: f38b 99bf 3ede 513f 64c6 80bd 90f6 ffbe
00000160: 8973 cebc df5d 693f f174 a7bf 5419 f03c
00000170: de74 dcbe 843f 253e 7039 1fbf 0c90 8ebd
00000180: 47a3 1a3e 6d46 af3e 7465 95be 6923 59bd
00000190: 5898 8a3d 3b14 803e 30f6 b93f 1c95 83bf
000001a0: 77a7 3f3e 281d eb3e aca3 143f 394c 76bc
000001b0: b8e0 c6bc 02fa 603e f599 e13d fc94 ddbd
000001c0: e1cc edbd 5d5c 1a3f 31f5 c93c 1f46 febc
000001d0: 00de 0d3e 8cd1 983c d16d 023e 7ef5 82bd
000001e0: 2cb7 be3c 9ef6 a1bd 2fef 063e 74c2 2abd
000001f0: 79e0 973c 800d 673c 1024 543d bfe3 54bd
00000200: 6813 063e 7dc8 e5bd b658 0e3e ef55 623d
00000210: 094c b63d 9d74 3fbc 7517 b4bd 80af 423c
00000220: 3328 de3d cf56 ecbd 202e 69bc e362 4fbf
00000230: 78f5 d9bf 9cda 593f f702 653b 30ea 15bf
00000240: 463b 313d ee93 a23e e31e c0bf d948 82bc
00000250: a90d 03bf 5486 04be 6d60 2bbe dcaa f43d
00000260: 9c94 0f3f d1c1 b83d 9355 a8be 726a 043e
00000270: 36f2 843e 9246 1c3e 6b03 ef3f ba8c 67be
00000280: c655 85bd 8b6b 283e c0f6 9a3f a50c fbbd
00000290: ff6c 843d 9028 46bd 7208 bbbd d64b 33bd
000002a0: 6625 b2bd 376a 773f c0c8 a9bb 11fe 0e3d
000002b0: 2bcb 31bc 629f 773d bc3b f43d 17c6 44bd
000002c0: b05d 3dbc 4fc7 7cbd 5285 b3bd 2679 693c
000002d0: e56e a3bd 12f0 7b3d c29d 1bbd 9fa7 f0bd
000002e0: f70e 8bbc e217 cfbd ca37 9ebd e07a 8a3d
000002f0: 5cdf c2bd 2d11 5e3d 7242 afbd f514 e93d
00000300: e6e2 753c 49a8 073d 06f4 d03d f3ff f2bf
00000310: 8c05 8bbf 7b93 17bf 98b9 dbbd 7fa2 0ebf
00000320: 3f26 8abf 7f99 103f 0138 993e ac64 9bbd
00000330: 8053 83bf 3cd1 0fbe 9934 273f 1234 c23e
00000340: 8e38 b73f b5db 64be 9da8 ce3e 7ae9 25bf
00000350: 9f64 353e e0ed ab3f 230a ad3f 0594 a53d
00000360: 8124 8dbb e583 bebe de10 54bf 753b 22be
00000370: a29e 1dbd d29c e33e 8cf4 70bd 52b4 36bd
00000380: 66e4 08bd 90b3 65bc 1851 3a3d 228c 4ebd
00000390: 601c 453d 10a2 d33d 4c8a 393d ae67 05bd
000003a0: d831 e73d 566e 8c3d 1a92 e1bd d853 9a3c
000003b0: 5686 f53d 68d8 8e3c 2678 813d 3896 763d
000003c0: f0a1 723d b272 fe3d c87f 5cbd 3d17 8ebd
000003d0: d663 7abd ec05 ecbc f051 2f3c c68e 02be
000003e0: 064c c23d a447 b4bc 9650 09bd eee8 fdbd
000003f0: bfe1 dcbd 52a4 80bd d6ea eebd 8452 9e3d
0.029485777 0.018862426 -0.04507245 -0.12118767 0.09865169 0.0043129027 0.091277376 -0.07279551
0.06413834 -0.09935607 -0.04129325 -0.006946206 0.10517582 -0.071624674 0.0711797 0.032175377
0.025096461 -0.037917763 0.061092407 -0.08078459 0.066625595 0.032458708 0.019086257 0.053433895
0.07247198 0.10148139 0.08983214 0.0833682 0.08759424 0.03416595 0.098572 0.12208937
0.12856047 -0.06969126 0.13232909 0.11391643 0.04116778 0.08337101 -0.11023168 -0.017387398
0.01989457 0.04875745 0.025916204 -0.025980763 0.033810973 -0.10333599 0.053630114 0.12625341
0.1181974 -0.083693534 -0.06948443 0.08141704 -0.09304442 -0.11588177 -0.07062046 0.09817982
0.03906772 1.2603719 0.09158746 0.019433554 -0.099703476 -0.075664416 -0.020480862 0.0021770627
0.069254264 -0.04924126 0.120058 0.10434714 0.044835966 0.12731287 0.105037525 0.07330448
0.077925555 -0.13117345 -0.11217237 0.07529699 -0.12651339 0.0031146768 0.11782995 -0.06912463
-0.022292387 -0.10038388 -0.10361387 -1.4480157 -1.1995834 0.8197974 -0.0628784 -0.499928
-0.025201576 0.9115886 -1.3082563 0.029308952 -0.43057913 0.1613751 -0.6219702 -0.069610685
0.15101348 0.34233418 -0.29178965 -0.053012285 0.067673385 0.25015435 1.4528255 -1.027988
0.18716227 0.45920682 0.58062243 -0.015032821 -0.024277076 0.2197037 0.11015693 -0.10819432
-0.11611343 0.60297185 0.02465305 -0.031039296 0.13854218 0.018654607 0.12737204 -0.0639448
0.023280703 -0.079083666 0.13177179 -0.04168935 0.018539654 0.01410234 0.051792204 -0.051975008
0.1309334 -0.11219881 0.13901028 0.055257734 0.08901221 -0.011685518 -0.087935366 0.011882663
0.10847511 -0.11539995 -0.014232188 -0.81010264 -1.7028036 0.85099196 0.0034944394 -0.58560467
0.04326942 0.31753486 -1.5009426 -0.015903877 -0.5119272 -0.12941867 -0.16736002 0.11946651
0.56086135 0.090213425 -0.32877788 0.1293123 0.25966042 0.15261295 1.8672918 -0.22612277
-0.065105006 0.16447274 1.2106552 -0.12258271 0.06466102 -0.048378527 -0.0913247 -0.043773495
-0.086985394 0.96646446 -0.005181402 0.034910265 -0.010851662 0.060454734 0.11925456 -0.048040476
-0.011557981 -0.061713513 -0.08765663 0.014250075 -0.07980136 0.061508246 -0.037992246 -0.11750721
-0.01697491 -0.10111977 -0.07725485 0.06761718 -0.09515259 0.0542156 -0.08557595 0.1138095
0.01500771 0.033119474 0.10202794 -1.898436 -1.0861068 -0.5920941 -0.107287586 -0.557167
-1.0792922 0.56484216 0.2992554 -0.07587561 -1.0259857 -0.1404466 0.6531463 0.37930351
1.4314134 -0.22349437 0.40363017 -0.6480938 0.17714165 1.3431969 1.3518718 0.08084873
-0.00430733 -0.37210003 -0.8283824 -0.15842994 -0.038481362 0.44455582 -0.058826968 -0.04460556
-0.033420943 -0.014019862 0.045487493 -0.05042661 0.048122764 0.10333645 0.045297906 -0.03256958
0.11288804 0.068569824 -0.11014195 0.018838808 0.11988513 0.017437175 0.063217446 0.060201854
0.059236467 0.1242422 -0.0538328 -0.06938026 -0.061130367 -0.028811418 0.010700688 -0.12749776
0.094871566 -0.022006817 -0.03352412 -0.123979434 -0.10785245 -0.062813416 -0.11665885 0.07730582

init_hidden.1.bias f4 [100]
00000000: 6443 f0bd 86a1 273d a284 e13d 2c2b 993d
00000010: 90b3 abbd e6fc 3c3e 85a7 963d a037 a4bc
00000020: 1eae b23d 6033 de3d a8e1 76bc e0d6 2dbd
00000030: 180e 93bd aa56 06be 609b d9bd b984 b0bd
00000040: a432 05bd ec01 9ebd 02ea 2bbd d4e4 8dbd
00000050: bc4b 05be 1d49 02be 4c5f 01bd 6b94 c23d
00000060: 4efc 813d 2f2b 85bd c46f 07be 6aca b43e
00000070: 5a1b a0bd 1858 efbd 529d 8dbd 45ff 093e
00000080: 2bfe b33e d252 ffbd 1e0a 7b3e bd6a cabd
00000090: 8570 513e 96ac 4dbd db46 7b3e 26e4 883d
000000a0: 1c7f a83d 927e 36bd 28dd 143e 60d2 c3bb
000000b0: 66d4 92bd 7a19 b4bd ea83 36bd c102 053d
000000c0: a3e4 e63d f1c9 a23e 04bb c6bd 8687 9fbd
000000d0: 0b29 e8bd 5c72 743e 446c 123e fe3b 60bd
000000e0: e27f 0bbd 7543 323e b367 e93d 79a9 e13d
000000f0: 5e39 8f3e 484d 113e 386a 3dbc fb60 383e
00000100: f733 89bd e0c3 823e adc5 593d 201e debd
00000110: cc17 243e 6f60 d93d 9199 2f3e 847d b83d
00000120: 964b 01be 1468 bdbc 9842 f73d 7064 a6bc
00000130: 8026 40bd 96cc 5c3e 0386 94bd fa4d 983a
00000140: 1f55 183e 2cde 903e 0f37 633e 6e61 d43e
00000150: 860f cfbd 7c92 883d 6b2c bc3e 4b1e a4bd
00000160: 1089 9f3e 4429 743c 27c5 cc3e 236e 97ba
00000170: 7ca1 f53d 8278 863e bcda 9dbc 1edc 09bd
00000180: 5d12 9b3d 7de4 603e b6d0 db3e f0df 5ebc
-0.11731604 0.040925525 0.11011626 0.074789375 -0.08383858 0.18455848 0.073561706 -0.020046055
0.087246165 0.10849643 -0.015068449 -0.04244125 -0.071804225 -0.13118997 -0.106253386 -0.08619065
-0.032518998 -0.0771521 -0.041971214 -0.06928411 -0.13017172 -0.12723203 -0.031585023 0.09500965
0.063469514 -0.06502377 -0.13226229 0.3531068 -0.07817717 -0.116867244 -0.06914772 0.13476284
0.35154852 -0.124669686 0.24515578 -0.0988364 0.20453079 -0.05021342 0.24538748 0.06684141
0.08227369 -0.0445543 0.1453749 -0.0059760064 -0.07169418 -0.08793922 -0.044559397 0.03247333
0.11274078 0.31794694 -0.09703639 -0.07789521 -0.11335953 0.2387175 0.14299113 -0.054744713
-0.034057505 0.17408545 0.11396732 0.110186525 0.27973455 0.14189637 -0.011560969 0.18005745
-0.06699365 0.25540066 0.053167034 -0.1084559 0.16024703 0.106140964 0.17148425 0.09008315
-0.1262649 -0.023120917 0.120732486 -0.020311564 -0.046911716 0.21562418 -0.07252123 0.0011619919
0.14876221 0.28294504 0.22188972 0.41480583 -0.10110383 0.06668565 0.36752638 -0.080135904
0.31159258 0.014902417 0.39994165 -0.0011553209 0.11993691 0.26263815 -0.01926934 -0.033657186
0.07571862 0.21962161 0.4293267 -0.013603196

init_hidden.3.weight f4 [100, 100]
00000000: b12f c83d ab10 49bf cb04 97be 5829 88be
00000010: 2032 c0bd 9b3a ddbc 47f9 fbbe 9da7 5abd
00000020: ca6e 6dbe 4af3 a6be c4de e13c e325 bbbd
00000030: 47f2 993d 1c15 e43c 8f2f 8e3d 54e3 89bd
00000040: 8645 2d3d 54b0 bcbc 74cc 03bd 40c4 123b
00000050: a8c0 5e3c 80e8 55bc 7958 c93d 20e9 70be
00000060: f3ad 9bbd d1da 8b3d 5b18 823d 93d8 fdbc
00000070: e0c6 c13c 8271 0f3d 9650 223d a096 aebe
00000080: ba14 383e b064 083c f46a 003e 2806 3f3c
00000090: b9a4 23be 3704 76bd 1939 fbbc 2046 06bf
000000a0: 1ab2 25be 7318 5bbd 96bf 1dbe 295f 973d
000000b0: 3beb 913d 7014 46bc c0d9 2cbc 6456 89bf
000000c0: 3c3c b2bd 8019 293e f96d 863d 17d2 3bbd
000000d0: 88cf 94bc fb9c fcbd 0489 50be 334c 76bd
000000e0: 3c29 83bd 505e 6b3d 89a9 8fbe c90e 8bbe
000000f0: 4aa0 973d 6c44 c4bd 5d61 8cbd 5e87 3abe
00000100: 0678 353d ce03 f9bd 4e4e b6bf 97e8 973d
00000110: bea4 7fbe 5847 a0bd efff 7ebe 3eca 35be
00000120: 4201 023d 9fc1 b73d 98ca 4abe 82dd 033d
00000130: 2152 9d3d b582 57be c0be febc b934 083d
00000140: 3741 4bbe d7b6 d13c 5db5 8a3d 616b be3c
00000150: 0715 ba3d 8f58 a8be 3ec5 7a3d e568 9dbd
00000160: 2c17 093d 162e 21bf 5bf5 c53d 91a6 fa3c
00000170: c279 cbbe deee 1c3c c829 a5bc 3b07 acbd
00000180: 988f 92bf 4aa2 0fbb 076f 29bd 5d47 82bd
00000190: 3ae0 383d 6a90 f63e 07d2 973d d750 22be
000001a0: 3806 9ebd 8c16 653d 4454 063f acd3 8d3c
000001b0: fb84 483c 7819 1c3d 1258 c7bd cffd ca3d
000001c0: 9382 adbd 1614 85bd 354b afbd 0c68 933c
000001d0: 802c c53c 0c43 f0bc ca3a 1bbd aa32 a4bd
000001e0: e00b c13c 17af 4cbd 36fc 06bd f85d a4bd
000001f0: b42c 443f 4119 cc3d cc5c d4bc 55fc e9bc
00000200: 6c95 bebc 9772 77bd 7ad6 27bd da8a e33e
00000210: 77e2 adbe c023 733b 8c4e f2bd 007a 223b
00000220: 5d66 4e3e 5d38 bc3d 6303 be3d aadf 2dbf
00000230: 06ee 713f 0f6f a83d 2aeb 043e 0764 1bbd
00000240: da52 123d 04e9 17bd 1029 63bc 7256 983f
00000250: 8777 bf3e ef41 b2be bee8 723d e4e0 de3c
00000260: c01c 22bd 4e7f 0f3e eafa 68bd 9ed6 8ebd
00000270: 4319 a03d b4ea b3be 2b41 f63e 1e5d 5b3e
00000280: e447 dbbe 58a8 a83e 1328 4ebd c147 b4bd
00000290: f23d 95bd 7b23 83bd c2f4 723f 8ec6 493d
000002a0: df6b cd3e a4dc 6d3e 4d02 4f3d 711b 64be
000002b0: 0869 adbc 808f e8bc 157a 083e 604b a0bc
000002c0: 6f25 c33d b283 3c3d 5885 abbd 526f 8a3d
000002d0: 2f50 cebd c367 f13d 0952 fbbe 39e1 66be
000002e0: 1677 0bbd da64 d7be f964 95be 03d8 50bd
000002f0: 1752 653d f022 a03d f315 9bbe cc05 02bd
00000300: 64ac c9bd bba4 b6bd ad06 94bd a369 ab3d
00000310: 9c1f 29bf 9a0c 0d3b 0268 29be 9a0b 0d3d
00000320: be4b 3a3d 7b06 2d3d 9d1a 343e 9e67 333f
00000330: 0070 793b 6a5d d0bd 12ae 99bd e91c 9b3d
00000340: ee50 513e 89fc 093e cf41 ba3d 1283 223d
00000350: 9436 ff3c 2005 f2bc 7af7 1bbd 6f91 c73d
00000360: 97c8 a33d cb06 a53d a734 a83d a095 e8bc
00000370: 0015 19bd 4758 993d 96ff a4bd cd6a 4f3e
00000380: edc1 0d3f 94e2 9abc 7ada 4bbd 0a41 603e
00000390: 802c 323c e03c bdbd b3d2 7dbd 345a 013d
000003a0: 0950 933d 6261 4d3d e9a8 8c3e 8072 e93b
000003b0: 1089 ad3e e05b 7cbd 3651 243e d1ea 143f
000003c0: e67f 2c3e 3845 853c a4d3 a13d 3a68 3fbd
000003d0: 29f6 853d 2898 673c 24bc f63c 8930 423f
000003e0: 7402 3e3d 4ac9 ab3d 783b 98bd 80cd 8b3c
000003f0: a8f6 ac3c 78ce 7e3d 45b4 273e a0a9 603b
0.097747214 -0.7854106 -0.29495844 -0.26594043 -0.093845606 -0.027005484 -0.4921362 -0.053382505
-0.23186794 -0.3260749 0.027572043 -0.09138086 0.07516914 0.027842097 0.06942665 -0.067328125
0.04230263 -0.023033299 -0.032177404 0.0022394806 0.0135957375 -0.013055921 0.09831328 -0.2352643
-0.076015376 0.06828845 0.06352302 -0.03098706 0.023654401 0.03502036 0.039627634 -0.34099293
0.17976657 0.008324787 0.125408 0.011659183 -0.15980805 -0.060062613 -0.030666875 -0.5245075
-0.16181222 -0.053490113 -0.15405115 0.07391197 0.07124945 -0.012089834 -0.0105499625 -1.0729489
-0.08702895 0.16513634 0.06563944 -0.045854654 -0.018165365 -0.12334629 -0.20364767 -0.060131263
-0.06404349 0.05746299 -0.28059033 -0.27159718 0.074036196 -0.09583363 -0.06854508 -0.18215701
0.044303916 -0.12158929 -1.4242647 0.0741741 -0.24965188 -0.07826108 -0.24902318 -0.1775293
0.03173948 0.08972477 -0.19803846 0.03219367 0.076816805 -0.21045955 -0.031096816 0.033253405
-0.19849096 0.02559988 0.067728736 0.023244562 0.09086042 -0.32880065 0.06122326 -0.07686023
0.033469364 -0.62960947 0.096659385 0.030597003 -0.3974133 0.009578435 -0.020161524 -0.083998166
-1.1450071 -0.00219168 -0.04136565 -0.06361268 0.045135714 0.48157054 0.074131064 -0.1585115
-0.0771603 0.055929706 0.5247233 0.017312847 0.012238736 0.038110226 -0.09733595 0.099116914
-0.08472171 -0.06497972 -0.085592665 0.01799395 0.02406907 -0.029328845 -0.037897862 -0.08017476
0.023565233 -0.049971666 -0.03295537 -0.080257356 0.7663071 0.09965754 -0.025923155 -0.028562704
-0.02326461 -0.060412016 -0.040976025 0.44441873 -0.3396184 0.0037100166 -0.11831388 0.0024791956
0.20156236 0.09190438 0.0927799 -0.6791941 0.9450382 0.08224308 0.12980333 -0.03793719
0.035723545 -0.037087455 -0.0138647705 1.1901381 0.3739588 -0.34815928 0.05930399 0.027206846
-0.0395782 0.14013407 -0.056879915 -0.06974529 0.07817318 -0.35140002 0.48096594 0.2142224
-0.42828286 0.32940936 -0.050331187 -0.088027485 -0.07287206 -0.06403252 0.9490472 0.049261622
0.40121362 0.23228699 0.050539304 -0.22276093 -0.021168247 -0.028388739 0.1332782 -0.019567192
0.09528624 0.046024032 -0.08375043 0.06759514 -0.100738876 0.11787369 -0.49086025 -0.22546853
-0.034049116 -0.4206913 -0.291786 -0.050987255 0.05598649 0.07819164 -0.30290183 -0.03174381
-0.09847334 -0.089181386 -0.07227836 0.08369758 -0.6606386 0.0021522404 -0.16543582 0.034434892
0.04548239 0.04224251 0.17588277 0.7007998 0.0038061142 -0.10174067 -0.075039044 0.075738735
0.20441028 0.13475241 0.09094583 0.03967578 0.031153955 -0.02954346 -0.03807781 0.09744536
0.07997244 0.08057936 0.08213168 -0.02839166 -0.037373543 0.07487541 -0.08056562 0.20255585
0.5537403 -0.018906869 -0.049768902 0.2189981 0.010874867 -0.092401266 -0.061968517 0.031580165
0.07193 0.0501417 0.27472618 0.007124245 0.33893633 -0.061611056 0.16046605 0.581708
0.16845664 0.016268358 0.07901695 -0.046730258 0.06541092 0.014135398 0.03011901 0.7585531
0.04638906 0.08388002 -0.07433218 0.017065763 0.021113709 0.062208623 0.16377361 0.0034280792

init_hidden.3.bias f4 [100]
00000000: 245a 283e 2803 96be 6584 be3d 8f41 cdbd
00000010: 1cc5 053d fa1d 24be 6344 08be 907f 88be
00000020: 3cfa d73b a621 b43d fd91 0abe fdcc 90bd
00000030: 1c83 4e3e bd69 e43c e492 b23d a1a5 33be
00000040: aa3d 513c d6d1 be3d 1af7 293e 0b1b d43c
00000050: 6041 b63d db36 d43d 3159 fc3d 1faa cc3b
00000060: ee74 65bd 6047 3dbc 3524 0a3d eec1 6abe
00000070: cf45 3dbe b1ce a2be c8d1 e73d 57e3 88be
00000080: 9341 48be fdbd d1bd ccce 3c3b f92a 9dbe
00000090: 86dc 3fbe 3a90 a1be 0788 f73d b6d0 57be
000000a0: 6245 be3d f239 87bc 691c a73d 0e20 80be
000000b0: d255 e43d 9cff ee3c fa38 373e ebe4 8c3e
000000c0: 5722 23be 69ee 2bbe 1df4 29bc 7960 43be
000000d0: 5347 8d3d 8e48 293c e215 663e 6eb9 21be
000000e0: 6b35 32be b347 413e 25a0 d13c 47c5 f73d
000000f0: 0f85 393e 00c5 59be 5274 87be 77ad 95be
00000100: ddd4 b13c 66f3 b0ba 2dad ce3d 180f 6bbd
00000110: a192 ae3b 6476 b13d 426f c83d 2fbf 13bd
00000120: cb5c 8cbe 4a29 26be 612f bdbd 4bbe 8cbd
00000130: 337c d93c 9f8c 22be 15ab 0f3d 8001 203e
00000140: 7139 20bb 18f5 603e b437 59bd f6b1 17bd
00000150: 7074 4b3d 16fa 2abc a71f 1a3d 18b3 33be
00000160: 79f9 09be e149 21be 201e 4ebd 82ac 8fbd
00000170: 105a d83e 8a62 e9bd dfa9 c3be a97d 5c3d
00000180: bee9 6b3d 09c5 223e 9b7b 083e cd19 773d
0.16440636 -0.29299283 0.09302596 -0.1002227 0.03265868 -0.1602706 -0.13307337 -0.26659822
0.0065911096 0.087954804 -0.13532253 -0.070703484 0.20167202 0.027882451 0.087194234 -0.17543651
0.0127710495 0.09317367 0.16598168 0.025891801 0.08899188 0.10362025 0.123216994 0.006245866
-0.056019716 -0.011552662 0.033725936 -0.22925541 -0.18483661 -0.31798318 0.113193095 -0.26735947
-0.19556265 -0.102413155 0.0028809784 -0.30696848 -0.18736467 -0.3155535 0.12086492 -0.2107571
0.092905775 -0.016507123 0.08159716 -0.25024456 0.111491814 0.029174618 0.17892829 0.275184
-0.15931068 -0.16790165 -0.010373143 -0.1907977 0.0689837 0.01033224 0.22469285 -0.15793392
-0.1740319 0.18875007 0.025589058 0.120981745 0.18117164 -0.21266556 -0.26455933 -0.29233906
0.021707946 -0.0013500273 0.100916244 -0.05738744 0.005327538 0.08665159 0.09786846 -0.036071
-0.27414545 -0.16226688 -0.092375524 -0.06872233 0.02654848 -0.15873955 0.035075266 0.15625572
-0.00244483 0.21968496 -0.05303164 -0.03703495 0.04967159 -0.010435602 0.037627842 -0.17548788
-0.13474073 -0.15750839 -0.0503217 -0.07015325 0.42256212 -0.11395748 -0.3821554 0.053830776
0.05759596 0.15895475 0.13328402 0.06032734

embed_layer.weight f4 [56, 100]
00000000: 78ae ab3f 9ec4 70bf bdf0 c4bf a4c4 71bd
00000010: 0c0a b5be a505 813f 17d5 5b40 b107 b9bf
00000020: c6f5 acbe 5e8c bbbf 42e0 3dbe baab bc3f
00000030: 15b4 3d3d 9cad a0bf eeb1 66bf ec72 1cc0
00000040: d236 2b3d fcd9 c0bf 338f 67bf 973a ec3e
00000050: d9fe 893f 9d20 21be 70b1 363f 1101 c1bf
00000060: d382 883e 67f8 3bbf ff3f 97be 6bca 4f3f
00000070: f6f2 01c0 d9b5 ecbe dc74 643e 9ec6 f9bf
00000080: f7e0 2c40 ca85 d43f 6e9a aabf 9a23 eebe
00000090: f7ca bb39 044e 5e3e dd69 35be aa3e 583f
000000a0: e5ec f8bd cdec 8bbf 5d6e 723f 2cc1 57bf
000000b0: 3da6 64bf 4d6b b13d 4ab4 38bf 9d99 663f
000000c0: d8e4 dbbe c8f2 8cbf 0634 bc3f 44a6 89bf
000000d0: 431b 4a3e 753e 0ebf a1b8 c83e 0648 8dbf
000000e0: 3b1c f6be 1ae5 d5bf 018e a63e 6d0c aa3f
000000f0: 6846 273f 7f1b f93e 0425 28bf c663 c03f
00000100: 8f9b 5b3f 6b1b 0d3f fa0d c83f 1c11 a3bf
00000110: d814 13bf c240 98bf 9cfe 3bbc d753 f5bf
00000120: 195d f53e 8152 b13f 67e2 b03f 1d22 273d
00000130: 36f0 d73f f04d 23bf f28d 6fbf 1d58 4abf
00000140: f989 75bd a760 ec3d dfa1 653e 799f 173f
00000150: 28f2 893f 179d d43f 1cbf 143e 49b8 03be
00000160: 3d55 edbe 8778 64bf 42a0 65bf a606 53c0
00000170: cf8c 163e 385b 053f d79d 41bf c3df 6ebf
00000180: 4e5d e3bf d2b1 353f 2e21 8ebf 2f61 433e
00000190: ccb0 1e3f 2cb2 93bf d41f 3a3f 3ddc d93e
000001a0: 1725 2540 8653 0cbe 769a 8cbf 45af 09c0
000001b0: 4a8c 03bf 353c 27bf 9fb6 0d40 e39b edbf
000001c0: 6a16 ef3f 4792 fe3d 1150 023e 5469 913f
000001d0: aee8 ed3d 1430 57bf 1368 8cbf 9c2a 85be
000001e0: 664f 2940 656d 55be c870 0e3f 93be 85bf
000001f0: 4c3c d13e bccd 91bf b805 e6bd 5cd9 7dbd
00000200: 8937 00bf d7ff ae3f ccce ba3d a9b3 bbbe
00000210: 0289 acbf 8fdc 0540 4b27 c53e cc09 2940
00000220: f6d5 383f b091 dabe 9a2f 2f3d ec98 5bbf
00000230: 08e6 8dbf 06b0 cbbf 371d 41bf be5d 053f
00000240: 5e36 813f 2614 c7bf f4fb 3d3f 8847 b7bf
00000250: 06ef d2be 558f 8cbf b058 2e3f 5876 83bf
00000260: eaa3 6fbf 7f83 c63f d084 393e 3045 dfbf
00000270: a794 c2be 4529 a73e 51c9 0a3f 4282 863f
00000280: 8e06 e6bf 6533 abbe 2e6d 6abf 6a3e 883f
00000290: 98ea b03f 94d3 063e be92 9d3f 605d a63e
000002a0: 8c59 9c3f 05bc 89be 329e dcbf 7c79 593e
000002b0: 1e8b 8e3f 74c0 32be 57b0 d3bf d3c3 24bf
000002c0: 6ea4 893f 50e5 3bbf f6b4 70bf 54bd e73d
000002d0: b3ae 5dbf a78c 8c3e 8a3d 9bbf 4386 dd3f
000002e0: 61b0 82bf a555 b73e 9c5d a0bd a867 dfbe
000002f0: b9bb 6b3e 8f99 efbe 568e de3c 4b3e da3e
00000300: e3c1 963f 6030 50bf ee42 af3e af3b 1bbf
00000310: 5f9b 043e 65b3 2b3f 10f2 2dbf 3f67 1ebe
00000320: a87b 243d 1b36 fd3e 4d44 18bf 1d40 53bf
00000330: b9fd 92bd 143f 97bf 2bf0 283f 6473 3abf
00000340: f4b6 ad3f fbaf cabe 1783 c03f dcac b93c
00000350: 8679 d13e b86f f0bc 2d4c 04bf 7649 7a3f
00000360: 10e1 383f 86e7 a0be a7c5 1a3f b526 113d
00000370: c90b 8a3f c927 6c3f 8a2b 0f3f 144a 1c3d
00000380: 511d 7ebf 1181 e33e 068b 93bf 2aec 863f
00000390: aca9 59bf a1c6 963f 1c1b f9bd 6f6f 4ebf
000003a0: d06f 123f 007d 1f3f 65f9 4f3f 38ec b03e
000003b0: 97fd 37be 3a0b 45bf 4bc3 79bf 37b0 5a3d
000003c0: 97af 143f d9c4 bebf 9de6 543f b3c2 1fbf
000003d0: f4e8 a1be bd91 5e3f c69a 633f 5590 52be
000003e0: 8be2 d83f eab5 f4bc 131c 1840 75c6 9cbf
000003f0: 64c2 b6bf 4586 eebe 118a ae3d f21d 9b3d
1.3412619 -0.94050014 -1.5385967 -0.05902542 -0.35359228 1.0079848 3.434881 -1.4455472
-0.3378126 -1.4652212 -0.18542579 1.4739907 0.046314318 -1.2552981 -0.9011525 -2.4445143
0.041800328 -1.5066524 -0.9045288 0.4613845 1.0780898 -0.15735097 0.713645 -1.507845
0.2666231 -0.73425907 -0.29541013 0.8116824 -2.0304542 -0.4623249 0.22310203 -1.9513738
2.7012308 1.6603329 -1.3328378 -0.46511537 0.0003581864 0.21709448 -0.17716165 0.8447062
-0.12154559 -1.0931641 0.9469965 -0.8427913 -0.8931616 0.08663044 -0.721501 0.90078145
-0.4294803 -1.1011591 1.4703376 -1.0753865 0.19736962 -0.5556405 0.3920336 -1.1037605
-0.48068413 -1.6710541 0.32530215 1.3285042 0.65341806 0.4865379 -0.6568148 1.5030448
0.8578424 0.5511996 1.5629265 -1.2739596 -0.5745368 -1.1894763 -0.011474278 -1.9166211
0.4792259 1.3853303 1.3819093 0.040804017 1.6870182 -0.637908 -0.93575966 -0.790407
-0.059946034 0.115418725 0.2242503 0.5922771 1.0777025 1.661044 0.14526027 -0.12863268
-0.46354094 -0.8924641 -0.8969766 -3.2972808 0.14702152 0.52092314 -0.7563147 -0.93310183
-1.7762849 0.7097446 -1.1103876 0.19080041 0.6198852 -1.1538749 0.72704816 0.4255084
2.5803888 -0.13703737 -1.0984638 -2.1513226 -0.5138594 -0.65326244 2.2142713 -1.8563198
1.8678715 0.12430244 0.12725855 1.1360269 0.11616646 -0.84057736 -1.0969261 -0.2600907
2.645471 -0.20842512 0.5564084 -1.0448784 0.40866315 -1.139091 -0.112315595 -0.06197487
-0.5008474 1.3671826 0.091214746 -0.36660507 -1.3479311 2.0915868 0.3850654 2.641223
0.7220148 -0.42689276 0.042770006 -0.85780215 -1.1085825 -1.5913093 -0.75435203 0.52096164
1.0094717 -1.5553024 0.74212575 -1.4318705 -0.41197985 -1.0981241 0.68104076 -1.0270491
-0.9360949 1.550888 0.1811707 -1.7442989 -0.38004038 0.32648674 0.54213434 1.0508502
-1.797075 -0.33437648 -0.91572845 1.0644047 1.3821592 0.13166648 1.2310407 0.32493114
1.2214828 -0.2690126 -1.7235777 0.21237749 1.1136205 -0.17456228 -1.653819 -0.64361304
1.0753305 -0.7339678 -0.94026124 0.11315408 -0.86594695 0.2745106 -1.2128155 1.7306598
-1.0210077 0.3580753 -0.078303546 -0.4363377 0.2302083 -0.46796843 0.02716748 0.4262565
1.177792 -0.81323814 0.3423075 -0.60637945 0.12949894 0.6707061 -0.67947483 -0.15469073
0.04015699 0.49455342 -0.5947922 -0.82519704 -0.071773 -1.1816125 0.6599147 -0.7283232
1.3571458 -0.39587387 1.5040005 0.022665434 0.40913028 -0.029350147 -0.51678735 0.9776834
0.7221842 -0.31426638 0.60457844 0.035437305 1.0784847 0.9224821 0.5592581 0.038156584
-0.99263483 0.44434407 -1.1526802 1.0540822 -0.85024524 1.1779367 -0.12163374 -0.80638784
0.5720186 0.6230011 0.8123992 0.3455522 -0.1796783 -0.76970255 -0.9756362 0.053390708
0.5808043 -1.4903823 0.8316439 -0.6240646 -0.31623042 0.8694113 0.8890804 -0.20562871
1.6944135 -0.0298719 2.3767135 -1.2248064 -1.4278073 -0.46586815 0.08522428 0.07574071

rnn.weight_ih_l0 f4 [300, 100]
00000000: 6d1c e9bd 9f22 aa3d d17a fabb d572 5f3d
00000010: 5a86 3ebd 53fc 43bd 2f5b 303d 410c 13be
00000020: 2bf4 b73c 1a61 90be 73db 16be 922f edbd
00000030: f9d9 a83c 43de 1ebe 31c3 14bb 0995 8bbd
00000040: 2371 043e a7b3 05bd 62c9 69bc 45f8 eebd
00000050: a71c b93c 2c1e 7a3d 7a69 a7bd 5eeb 84ba
00000060: e439 22be 45af 523d 8588 cd3d e507 093e
00000070: e1d0 573e fd49 983d e198 003e 6a0d 53bd
00000080: 27a5 c73d 09cb 173e f926 953d ef99 b1bd
00000090: 498f 40be 8ef9 d63c e8ad 1bbe 4a52 9f3c
000000a0: 81b7 80bd 189d a43d 2501 293d aa6e 0dbe
000000b0: 78ca 11be 883e ecbd a9ae 63bd 5360 483d
000000c0: e6c1 23be 3232 16bd 1ed8 b4bc 11ee 95bd
000000d0: 60fe b3bd c1e0 233e 5169 143c 62cb a2bd
000000e0: 0afe 98be 9b7d bc3d 136e 3abe 7f9b 0e3e
000000f0: 62bd afbd 5b8e 263e ea9e 88bd 8bd8 2d3e
00000100: 799b 0fbe a7e5 8cbd 6a54 f6bd 34dd ab3b
00000110: 7f5b d83d 9f2e 3ebd d338 fcbc 7ae3 86bd
00000120: 4fe8 d23d b94b d3bd 2389 053e ab6f 0b3d
00000130: b10d 6c3d 9176 57bd ef1f 1fbc b3e6 5d3d
00000140: b244 00be 2dcc 25be a9a8 07be d77b b8bc
00000150: 187c fa3d 280c 3a3d 5bc5 e1bc df13 08be
00000160: 3eaa 83bd 7c2c a23d faa4 043d 36f4 af3d
00000170: d731 5a3d 5085 19be 5254 edbc f16c 89bc
00000180: 681d 973d 9f12 3a3c a992 ccbd 731f 93bd
00000190: 515d 38bd 193e b63d 12b3 1e3e e12e 3e3e
000001a0: a09b 2b3e 771c 90bd f8ff cabd c48f 53bd
000001b0: f96b 153e 6445 12bd d302 553d b99a 40bd
000001c0: affd dbbd dd51 bbbd f52a 3e3d ee6b 07be
000001d0: d31e c43d 67d8 d23c 192b 0f3c 98ba 1fbe
000001e0: 9ec8 cd3d 6b08 973e 9540 dbbd b792 e9bc
000001f0: 1d3c 853d 569a 33bd f01f 643d 3d29 473a
00000200: e1ac b73d 6bc5 313d 2bf3 503e 175c 84be
00000210: 4c4b 24be 6dd1 d3bc 4d3e 2e3e 84fc 1b3d
00000220: 4d3c fdbd 2435 bb3d b1f6 5fbe 5462 42be
00000230: 1b81 223e 2e3b 46be 04d9 e03d 376e 153c
00000240: bbb4 6b3e cd8f c03e 68b5 ca3d 36e5 ad3c
00000250: c4bc b83d c216 51be 0899 7b3e 3234 4abe
00000260: 03d1 f9bd 0fc6 9ebc 48e7 e23d 5ccf 5d3d
00000270: 571a 8b3e 9d34 4abd 5d6b 0b3d d631 0a3c
00000280: 03dd 6b3d f509 e83d 8d44 81bb 6c0c 2cbd
00000290: fe7e 333e fef6 99bc 4e3f aa3b df47 64be
000002a0: d1fc b7bd 9a3a ab3a 9d85 133d a5e5 e2bd
000002b0: b16d 643e d1b0 8c3e 9e74 0ebe 0515 093e
000002c0: 935a 76bd 5909 02be 766f bd3c 5a7c 973b
000002d0: 088b f8bd 7f15 3bbe d062 7bbe a229 f8bc
000002e0: c912 cc3d 866b 91bd 1333 1cbd 5ff1 dcbd
000002f0: fa19 c03d cee4 63bd 761e bdbe 01ed ebbc
00000300: 0ed8 4dbd b6a0 01bd 47c4 f5bb b20f 2c3e
00000310: 880b 3a3e 0d40 6c3e ffb7 1f3d 8860 91bc
00000320: a592 213e 621d 1ebe ec0c a33d a873 11be
00000330: 574b dd3d 379b 2ebd dbe7 d73c 20b0 6a3e
00000340: b9f7 c33d eed7 86be 0d0c 313e 1a62 7dbd
00000350: f22e 6dbe 3ab1 19be 0220 8b3e 5558 e2bd
00000360: 6d19 153e 8cc9 59be e41a a2bd 4057 d7b6
00000370: 4835 cc3d b200 fd3d 3d96 513d 644f 3f3b
00000380: 7fe8 e8bd 2eda febb 5f1d f53c b999 a13d
00000390: 65d9 243c b885 a73d 0f31 e13d 1704 6b3d
000003a0: 1a10 00be dc81 23bd b2d7 0b3e dfd2 263e
000003b0: fdcf 63bd e465 6bbe 1b16 1ebe 3d83 7cbe
000003c0: e7e1 ecbc 3015 98bd a02a 843b 8de2 da3c
000003d0: 4cb2 08be adb8 4b3d f1d0 dbbd 6d68 e4bc
000003e0: e923 67bd 4943 23be 465d 963d 3e2a db3c
000003f0: 0058 6abb 4843 59be 1c16 febd b4b3 443d
-0.11382375 0.08307385 -0.0076440354 0.05455287 -0.046514846 -0.047848057 0.04305571 -0.14360143
0.022455296 -0.28199083 -0.1473215 -0.11581339 0.02061175 -0.15514474 -0.002269935 -0.068155356
0.12933783 -0.032642033 -0.014269205 -0.116684474 0.02259667 0.06106393 -0.08174415 -0.0010140946
-0.15842396 0.05143668 0.10035805 0.13381918 0.21075775 0.07435987 0.12558319 -0.051526465
0.09748297 0.14823546 0.07282824 -0.08671939 -0.18804659 0.026242044 -0.15203059 0.019448418
-0.062850006 0.08037776 0.041260857 -0.13811746 -0.14237392 -0.115353644 -0.05558649 0.048919987
-0.15991935 -0.036668964 -0.022075709 -0.07320798 -0.087887526 0.16003706 0.0090583125 -0.079489484
-0.29881316 0.09203645 -0.18206052 0.13926505 -0.08581044 0.16265242 -0.066709355 0.16977136
-0.14024152 -0.0687974 -0.120278195 0.0052448753 0.105643265 -0.04643118 -0.030788815 -0.065863565
0.102982156 -0.10317177 0.13040595 0.03404204 0.057630245 -0.052603308 -0.009712203 0.05417509
-0.12526205 -0.16191168 -0.13247932 -0.022519989 0.122307 0.04542175 -0.027559927 -0.1328883
-0.064289555 0.07918641 0.032383896 0.085915014 0.053270187 -0.14992261 -0.028970871 -0.01677558
0.07378656 0.011356979 -0.09988911 -0.07183733 -0.04501087 0.08898563 0.15497997 0.1857257
0.16758585 -0.07036679 -0.099121034 -0.051650777 0.1459197 -0.035710707 0.052004647 -0.047022555
-0.10741746 -0.091464736 0.046427686 -0.13224766 0.09576192 0.025737954 0.008738303 -0.15598524
0.1004803 0.2949861 -0.107056774 -0.028512342 0.06505606 -0.043848358 0.05569452 0.00075973925
0.08968521 0.043401163 0.20405261 -0.2585151 -0.16044348 -0.025856698 0.17015953 0.038082615
-0.12365017 0.09140995 -0.21871449 -0.18982822 0.15869562 -0.19358513 0.109788924 0.009120516
0.23018162 0.3760971 0.09897882 0.02122746 0.09020379 -0.20418838 0.24570096 -0.19746473
-0.12198069 -0.019381551 0.1107927 0.05415283 0.27168533 -0.049366582 0.034037936 0.008434733
0.05758382 0.11330024 -0.0039449395 -0.042004034 0.17528912 -0.018794533 0.005195535 -0.22293042
-0.08983768 0.0013063729 0.036016095 -0.110789575 0.22307469 0.2747865 -0.13911673 0.13386925
-0.060144972 -0.12698878 0.023124438 0.004622978 -0.12135893 -0.18269919 -0.24549413 -0.03029329
0.099645205 -0.071005866 -0.038134646 -0.107882254 0.09379955 -0.055638127 -0.36937302 -0.028799536
-0.050254874 -0.031647407 -0.0075002047 0.16802862 0.18168461 0.23071308 0.03899383 -0.017746225
0.15778597 -0.15440896 0.07961449 -0.14204276 0.108053856 -0.042628493 0.026355674 0.22918749
0.09568734 -0.26336616 0.17289753 -0.061861135 -0.2316244 -0.15009013 0.27172858 -0.11052004
0.1456048 -0.2126829 -0.07915285 -6.4176566e-06 0.099711 0.12353648 0.05116867 0.0029191608
-0.1137247 -0.007777474 0.029921232 0.078906484 0.0100615965 0.08179802 0.10995685 0.057376947
-0.12506142 -0.039918765 0.136565 0.16291378 -0.055618275 -0.22988087 -0.1543812 -0.24659438
-0.028916312 -0.07425916 0.0040334016 0.026719356 -0.13349265 0.049736667 -0.10733212 -0.027881825
-0.05643073 -0.15943636 0.07342009 0.026753541 -0.0035758018 -0.21217072 -0.12406561 0.04802294

rnn.weight_hh_l0 f4 [300, 100]
00000000: c4e3 243e 6d3f c53c 1666 7c3c 34e6 bbbd
00000010: 7c57 debc 7c81 6c3e 574a 403e b57b de3d
00000020: e21a dbbd 0292 4c3d d5b7 06be 61ad 30bb
00000030: 49ff 6e3e e321 4d3d 621e c43d a055 5abe
00000040: 24db 513d 99e6 86bd 8d1e 3a3d 677d f73d
00000050: 86ee e23b 739d 92be b476 8f3c b7a0 98be
00000060: bd09 9ebd 9329 df3e 4664 09be e650 c4be
00000070: 9de9 b73d 33c7 1ebe 58c2 69be 72a3 05be
00000080: 5d59 7abe 7706 31be 3a1f 57bd dc1b 893e
00000090: b6b2 84be 9f13 513e 3828 cdbd 7691 203e
000000a0: 6c02 abbd 5187 f43d 4df6 7d3e b395 8dbe
000000b0: 24c3 a73e f82e 853e 0fb4 723d ce3b a5bc
000000c0: e794 163e beca 4f3d 4493 383c 431a 4bbd
000000d0: 8add be3d ed8f 063d 72c5 4ebe 24a8 3abd
000000e0: 36be 563d 2b12 01bd a88c 843e b7c5 9a3e
000000f0: 5b4e 113e 804d 933e 95f3 0cbe 0372 3b3d
00000100: dc3f 20bd 5516 783d 545c 8c3e ead2 143d
00000110: d5b1 dbbd ecad 39be 58c2 e23e 01b5 1ebe
00000120: b5b3 e1bd d348 06bd bc8d 9e3a 6ea6 f33d
00000130: 7133 f8bd e54f 9b3d 0cd7 8c3e f94c 153c
00000140: df8e 083d a45c 233e b86b 51be 111d a6be
00000150: 4dec 4bbe c4d6 d2be 47a0 ac3c 53b2 49be
00000160: d523 a8bd 91f9 033c 072d 723c 876a 4d3d
00000170: 4af4 7abe c2ed f8bd 84c5 4b3d 0431 c43d
00000180: 2dc2 203d 964c 913d b63f 87be b246 acbd
00000190: 664e e33d 9d51 4dbe 9792 5d3e 4c70 10bd
000001a0: c28b ce3d a45b a13e 97d7 ac3e 28d0 073e
000001b0: cf44 c2be 7eaf 55bf 6415 f13d 91f8 f5be
000001c0: 5c47 093d 5760 7fbd 0d77 ebbd d107 1c3d
000001d0: 3118 a33e d7a5 733e 61a1 3fbe 9fc8 60bd
000001e0: 7c72 af3d e336 b6be 8262 6bba ee89 17be
000001f0: cac0 85be eae7 8ebe eab6 803e d31a b83d
00000200: 58b1 7d3e 2ac6 173e ab87 29be 0f79 07be
00000210: df9f 5d3e 78e8 c23e 5783 32bc b3cc 17be
00000220: b5c3 d6be f2c6 cfbc f61a 553e 2147 97be
00000230: 0aa1 0fbc 9472 893d 5c50 25be 0932 7bbd
00000240: 36c2 903e 52fe 35bd 320b 8ebd 7cd2 143e
00000250: 706f 81bd a761 03bd 9d2a 683d a72e 533d
00000260: 9ac8 f13d da76 c43a 6df0 a7bd a159 cfbe
00000270: ac0a 0e3d 9b31 debe 4966 933e d1d5 e9bc
00000280: 497b 883e 5b9d 7ebe 69e7 793e a9bc a53e
00000290: 3e43 a7bd f4f1 1f3e 0bd2 323e 41b2 4c3e
000002a0: 4829 e4be a5a6 943d 0e8c bf3e 9607 d8bd
000002b0: b4ef 283d 7a00 27be b55f e7be cb6a 833e
000002c0: 8513 63bb f145 26be 3acb 723e 5e5c c73d
000002d0: bf4d 23bf b854 263e dbaa 77be 580d a3be
000002e0: ba82 f7bd 61f8 123e cb04 ea3e a302 a8bc
000002f0: 014b 823e 57fe 33be b631 043e 7bb9 743e
00000300: 7562 f13d 4793 9a3d 3774 1f3e 5f9a ce3e
00000310: 361a acbe 59cd eabd a77e a43d 1093 623e
00000320: 6c69 c9bd 75f5 49be 2c9e 41be 20c5 c93d
00000330: 297f 9a3d c8b3 85be 4858 5abe 2215 ebbe
00000340: 02f2 0cbf e533 7b3d 7346 1bbe eba7 b9bd
00000350: f4c9 6abc 696f 7dbe cb5b c7be 6f25 fd3c
00000360: fbcd 92be e141 923e 26b8 203e 99af a4bc
00000370: de32 7fbd b1a6 c03d 6246 2b3e 3c45 1bbe
00000380: bb11 753e c613 2f3e 80af b83e 80db 0d3e
00000390: d2a1 c93d 6abe 103e b85a af3e 8efb 9ebd
000003a0: 7a2a aa3e 4dde 97be bd9c 92bd 7ac1 5fbe
000003b0: 22e3 63be 8df0 363e c5b4 d9be 4604 b33e
000003c0: 9d51 aa3e e159 cdbe 3f8d ecbc e19b dd3d
000003d0: d553 0f3f 97fd 34bd 67e1 2b3e 5946 bb3e
000003e0: 425b 5cbf bb7e 4e3c bb7e efbd 7d1d c23d
000003f0: 13a9 ec3d 5087 32be 7797 bcbe b773 43be
0.1610251 0.024078095 0.015405199 -0.09174767 -0.027141325 0.2309627 0.18778358 0.10863439
-0.10698487 0.04994393 -0.13156064 -0.002695881 0.23339571 0.050081145 0.095761076 -0.21321726
0.05123438 -0.06586952 0.04543929 0.120844655 0.006925407 -0.2863575 0.017512657 -0.29810116
-0.07716701 0.43586406 -0.13417158 -0.3834297 0.08980105 -0.15505676 -0.22828043 -0.1305063
-0.24448152 -0.17287622 -0.052520014 0.26779068 -0.25917596 0.20417641 -0.10017437 0.15680489
-0.08350071 0.11939872 0.24800988 -0.27653274 0.32766068 0.26012397 0.05925375 -0.020170119
0.14705239 0.05073046 0.01126558 -0.049585592 0.09319599 0.032852102 -0.20192507 -0.045570508
0.052427493 -0.031511467 0.25888562 0.3022897 0.14190046 0.28770065 -0.13764794 0.045763027
-0.0391234 0.060568172 0.2741419 0.036333956 -0.10727278 -0.18132752 0.44288898 -0.15498735
-0.110206045 -0.032784294 0.0012096683 0.11896978 -0.12119187 0.07583598 0.27507818 0.00911259
0.033339377 0.15953308 -0.20451248 -0.3244405 -0.1991436 -0.41179478 0.02107252 -0.19696932
-0.082099594 0.008055107 0.014781243 0.05015042 -0.24507251 -0.12154724 0.049748912 0.095796615
0.03924768 0.07094686 -0.26415795 -0.084119216 0.11098938 -0.20050664 0.21637951 -0.035263345
0.100852504 0.3151523 0.33758232 0.13262999 -0.37943122 -0.83470905 0.11771658 -0.48041204
0.03351532 -0.062347736 -0.114973165 0.03809339 0.31854394 0.23793732 -0.18713905 -0.054878827
0.08566758 -0.3558875 -0.00089792174 -0.1479871 -0.2612365 -0.2791131 0.25139552 0.08989491
0.24774683 0.14821687 -0.1655566 -0.13229774 0.21643017 0.38067985 -0.010895572 -0.1482418
-0.41946188 -0.02536342 0.20811066 -0.29546455 -0.008766422 0.06711307 -0.16143936 -0.061327014
0.2827317 -0.044431992 -0.06935729 0.14533418 -0.06320083 -0.03207555 0.056681264 0.051558163
0.1180584 0.0014989034 -0.082001545 -0.4049807 0.034678146 -0.4339722 0.28788975 -0.028544338
0.2665656 -0.24864714 0.24404682 0.323705 -0.08167122 0.15619642 0.17462938 0.19989873
-0.44562745 0.072583474 0.3741154 -0.10548322 0.041244224 -0.16308776 -0.45190206 0.25667414
-0.0034649086 -0.16237618 0.23710337 0.097344145 -0.63790506 0.16243255 -0.2418627 -0.31846118
-0.12085481 0.14352562 0.45706782 -0.02050907 0.25447848 -0.17577492 0.12909588 0.2389888
0.11786357 0.07547622 0.15571676 0.4035215 -0.33613747 -0.11464948 0.080319695 0.22126412
-0.09834561 -0.1972254 -0.18907994 0.09852052 0.07543785 -0.26113725 -0.21322739 -0.4591456
-0.55056775 0.061328787 -0.15163593 -0.09065231 -0.014330376 -0.24749531 -0.3893722 0.030901639
-0.28672776 0.28565887 0.15695247 -0.020103263 -0.06230437 0.09406794 0.16726068 -0.1516313
0.23932545 0.17097387 0.36071396 0.13853264 0.09845318 0.14135137 0.342489 -0.07762824
0.33235532 -0.2966179 -0.07158802 -0.21851149 -0.22254613 0.178652 -0.4252073 0.34964198
0.3326539 -0.40107635 -0.028875945 0.10820747 0.5598729 -0.044187155 0.16785203 0.36577109
-0.8607675 0.012603457 -0.11694094 0.09478281 0.11555686 -0.1743443 -0.36834309 -0.1908711

rnn.bias_ih_l0 f4 [300]
00000000: 3161 c53c 00a4 913d 6f82 753d e7f7 333e
00000010: d139 793d 2ac1 0bbc 2899 d1bc 5fdf 0c3d
00000020: 039c 45ba 082a 073e b94b 533c 0587 9e3d
00000030: 65b9 9d3c 7e8a d43a c5df 963d b380 ce3d
00000040: 0903 9d3d eed3 a33d ef31 823e 076b ffbc
00000050: a15a dbbc 8f28 fb3d 905a 273e aed8 933d
00000060: b0d2 ea3b 205f 4c3e 4472 9cbc b8b9 323c
00000070: 6cf8 e23d 915a f43d 3aec 0e3e 1b0b 423e
00000080: 563e 983a c095 473e 26bf 7e3d 8048 5abc
00000090: 3b27 53bd cbe8 b33d 1531 073e 01e6 663e
000000a0: 7f1e 583d 1d80 b73d 8ba0 0e3d 0b0d 203d
000000b0: 8210 a23d 20ed 04bd 4d7d 743d 5abb fcbc
000000c0: ec99 8dbb 2402 fbbc 5b06 9f3d 2cb0 6b3e
000000d0: 34fc a4bc 913c 8d3d 38b5 173e 2bb5 a6bc
000000e0: 2b2c d33d 608d 393e 521b 7f3e 463e 5b3e
000000f0: 0a81 463e 963c 183d f86b 173e 3489 bcbd
00000100: c59c 9fbc c12b d73d 00c1 3d3d b7fa 483e
00000110: 0b10 af3d 45f8 503e 48b0 0f3e 7d5e a23d
00000120: 8520 223b 279a 723e d2ba 403e 9fe0 083e
00000130: 7247 92bb 678c 0c3e 7a2b 8e3d 827f 8c3d
00000140: 3456 163d 6b5c f83d 7904 f73d f9ac 943d
00000150: fb52 aa3d b9fe 033d 4f28 a2bc 5826 bd3d
00000160: 0828 4f3e 3d42 9a3d 4460 2bbd 1d6a 863d
00000170: 451a 61bc 37a0 3ebd 00d0 363e 433c 00bc
00000180: 5509 ce3d 8b97 2b3e a45a a1bc f334 a4bd
00000190: a727 7ebe 71ea 81be 1b3b 76be 1fe7 97be
000001a0: 46f1 86bd 0448 5bbe 8108 9e3b f402 92be
000001b0: e963 f3bd dd55 93bd 4433 00be 45b0 a1bd
000001c0: 2d95 85be e226 2abe 6471 cd3b e006 e0bd
000001d0: ce5b abbd c937 68be 4ef2 25be 4975 13bb
000001e0: 2e41 4fbc 8419 c1bd 5836 49be a2a8 dabd
000001f0: 0faf 37be aa1f abbe 68f1 14be 3061 85bd
00000200: e9a2 18be c4fc 293d 77e0 d7bd 3314 15be
00000210: 372f bdbd e234 50be b121 02be f960 a0be
00000220: 82cf 15be 63ae c6bc d3a1 0dbe 12d2 26be
00000230: 5835 48be ad8e 0ebe 51ba 63bd fc59 0bbe
00000240: 3c4f 0bbe cb82 7abe 96ac b3bd 1914 39be
00000250: 580a 18be b10b 6dbe 8703 7bbe ba27 8dbd
00000260: 5ff4 b3be 290a 6fbe c73e f8bd 9862 88bd
00000270: 9869 88be 14dc 23be 1962 b2bd fb71 0fbe
00000280: 6509 e6bd b5a0 a0bd 2b63 6ebe 3cdb 92be
00000290: ce63 2ebe fee4 8ebe 6111 2dbe d541 6ebe
000002a0: afcb 45be e14e 66be 602a cbbd 47a5 83be
000002b0: 074a c4bd 6e1e c4be 2c1d 77be a7ac acbd
000002c0: dea0 aebe 7c01 e3bd 9817 c5bb 67ae cdbd
000002d0: 2b79 73be a3b5 84be 38b3 a8bd 9008 dfbd
000002e0: 26db 2fbe e27e 35be d652 babd e7f1 54be
000002f0: 3eef 35be 3647 25be 5b24 70be 14ba 3ebe
00000300: 1b07 45be ce24 4cbe 5d77 9fbe 3fc0 0fbe
00000310: 5951 38be 90a9 1bbd 499b 82be 6147 9bbe
00000320: 8478 a93c 82b6 d03d d42a 8abe cb9a 9abd
00000330: 9120 e9bd 00a5 663e d901 f2bd a041 7bbc
00000340: cecf 6d3e 831f a5bd a56f a2bd 836e 303e
00000350: 672a 2fbb 7b01 133d 735d bd3e 26b9 933d
00000360: a99c 1a3e fc21 0e3e 66d1 143d 3088 7cbc
00000370: f324 133d 814f 583d e27a 39be 6401 843d
00000380: cc7b 5ebe de6a 793c 203b 363e 2659 0f3e
00000390: c9dd 8ebd 4da8 f33d 6dce 823c 7ba7 28bc
000003a0: 2846 80bd ea49 9b3d 14a4 03bd f088 cb3d
000003b0: 80f5 f03d 8182 db3c bdcf 463c 6b24 91bd
000003c0: 727d a7bc 2d6e dfbc 79b2 2fbd a6f7 f13c
000003d0: 7338 e7bd 90f6 1e3e db4c 8a3c cd1f 34be
000003e0: dfbe e53c 3129 3cbd 84e2 adbb 8faa 16be
000003f0: f46a 38be 1d83 f8bc 7ee9 3ebd c501 c8bd
0.024094196 0.07111359 0.059938844 0.17575036 0.060846154 -0.008529941 -0.025585726 0.03439271
-0.0007538201 0.13199627 0.012896472 0.07740597 0.019253442 0.001621559 0.073668994 0.10083141
0.076665945 0.07999407 0.2542872 -0.031178964 -0.026776614 0.12263595 0.1634314 0.07219063
0.007166229 0.19958162 -0.019097455 0.010908537 0.11082539 0.11931337 0.13957301 0.18949549
0.0011615257 0.19490719 0.062194012 -0.013322949 -0.051551085 0.08784636 0.13202317 0.22548677
0.05276346 0.089599825 0.034821074 0.03907494 0.07913305 -0.032452703 0.05968981 -0.030851055
-0.0043213274 -0.03064067 0.07764884 0.23016423 -0.020139791 0.06896318 0.14815223 -0.02035006
0.10311159 0.18120337 0.24912766 0.21410474 0.19385162 0.037167154 0.1478728 -0.09205857
-0.019483933 0.10506392 0.046326637 0.1962689 0.08547982 0.20407207 0.1403209 0.079281785
0.0024738621 0.23691617 0.18821266 0.13366936 -0.0044640834 0.13725434 0.06941886 0.06860258
0.036703303 0.12127002 0.120614 0.072595544 0.083166085 0.032225344 -0.019794611 0.09235829
0.20230114 0.07532165 -0.041839853 0.06563208 -0.013739173 -0.04653951 0.17852783 -0.0078268675
0.10060374 0.16757028 -0.019696541 -0.08017912 -0.24819814 -0.25374177 -0.24045984 -0.2966852
-0.06588988 -0.2141419 0.004822791 -0.28517878 -0.11884291 -0.071941115 -0.12519556 -0.07894949
-0.26090375 -0.16616395 0.0062696207 -0.10938811 -0.0836712 -0.2267753 -0.16205713 -0.0022500327
-0.012649817 -0.09428695 -0.19649637 -0.106766954 -0.17937873 -0.33422595 -0.14545214 -0.06512678
-0.14905895 0.04150082 -0.1054086 -0.14558487 -0.09237521 -0.20332673 -0.12708165 -0.31323984
-0.14629939 -0.024253076 -0.13831262 -0.16291073 -0.19551599 -0.13921614 -0.055597607 -0.13608545
-0.13604444 -0.24463956 -0.087731525 -0.18074073 -0.14847696 -0.23148991 -0.24513064 -0.06892343
-0.35147378 -0.2334372 -0.12121349 -0.0665943 -0.26643062 -0.16001922 -0.08710117 -0.14008324
-0.112322606 -0.078431524 -0.23280017 -0.28682888 -0.1703026 -0.27909082 -0.16901161 -0.232673
-0.1931598 -0.22491027 -0.09920192 -0.25712034 -0.09584432 -0.38304466 -0.24132222 -0.08431368
-0.34107107 -0.110842675 -0.0060147755 -0.1004303 -0.2377669 -0.25919828 -0.08237308 -0.10890305
-0.17173442 -0.17724183 -0.09097831 -0.20795403 -0.17767045 -0.16140446 -0.23451369 -0.1862567
-0.19240992 -0.19935915 -0.31145754 -0.1403818 -0.17999782 -0.038003504 -0.25509098 -0.30327895
0.02068735 0.101910606 -0.269858 -0.07549056 -0.11383165 0.2252388 -0.11816759 -0.01533547
0.23223802 -0.08062651 -0.07931451 0.17229657 -0.0026728155 0.035890084 0.3698536 0.07213049
0.15098824 0.13880152 0.03633251 -0.015413329 0.03592391 0.052810196 -0.18113282 0.06445578
-0.21726912 0.015223233 0.17795992 0.13998851 -0.06975896 0.11897335 0.015967572 -0.010293837
-0.06263381 0.07582457 -0.0321389 0.09938228 0.117655754 0.026795628 0.01213449 -0.07087024
-0.02044556 -0.027274216 -0.042894814 0.029537033 -0.11290064 0.15523744 0.01688235 -0.17590256
0.028045116 -0.04593772 -0.005306544 -0.147135 -0.1800955 -0.030335957 -0.046609394 -0.097659625

rnn.bias_hh_l0 f4 [300]
00000000: 5735 103e 8e43 e13d fc08 4d3e 8e64 483e
00000010: 954e 4f3d 28b4 993d a3c7 a93d 53af a13d
00000020: 9e17 a83d 84f4 1dbd 2319 503e 3bec 253e
00000030: b14e d03a 9b2d bd3d 9d45 823d fd14 d13d
00000040: 5670 ad3d bcf3 85bc 6d6d 4b3e 5646 b83d
00000050: 0113 3f3d a8fb a63c ac40 a53c fb5e 973d
00000060: cbfa af3c 89a6 2c3e c480 f73c 54e8 04be
00000070: 6dc8 443e 0e2d 6cbc 21ef 033e 21ac cf3d
00000080: ff5b 453e b3d5 033e 1996 493e 052b 173e
00000090: 0aac 773d 394a 5abc 9fc9 a73d 2636 d23d
000000a0: 0f22 b1bc 04cb 543d 5636 963d ce98 f73d
000000b0: c63a 593d 9a0d 10bd 92f0 2b3e b247 53bc
000000c0: 1e73 943d d8fb b53d 9326 a9bd 8739 1c3e
000000d0: 91ba 443d 808e c73d ff77 983d 6f4e 003e
000000e0: 74eb 203d 3336 ed3d 5d1a 443e 0406 7d3e
000000f0: 7737 e93c ee32 c73d f7f7 4e3d 60c2 3a3d
00000100: a350 25bc 544b e93c 916e 5c3c 5edb 3b3e
00000110: f8ff 53bd 07cc 413e b69d 6bbc 48d0 553e
00000120: 8e09 a7bd 3401 183e 6d34 413e bb7a 383e
00000130: 4325 48bd 1d7b 053e 50cd c13c a935 173e
00000140: ed21 68bd affb 643c 92ef 383e a8ed e63d
00000150: 18b6 c33d 0ec7 be3d ee4a 7b3d 8127 0e3e
00000160: 5803 963d df03 023e 8f2f 0dbe 6b85 c53d
00000170: 8c71 c23d 1de1 0abd 02de b63d 9cc6 523d
00000180: 8244 473e 8bc1 5d3e 3698 eabc 32c7 a1bd
00000190: 979b 07be a58f 1fbe 202a 8dbe 2e62 9bbe
000001a0: 7c5c 2bbe 4ff2 8fbe 08a9 d8bc 617a 96be
000001b0: 5e47 3dbe f1ac 72be ac01 1ebe 90e2 8ebd
000001c0: c08e a7be a8e7 49be 4c2f 243c 1881 05be
000001d0: 1ff5 dfbd 51e3 8ebd ca1a 5fbe 7427 1ebc
000001e0: 68ad 07be 05db bdbd 2db2 8bbe cd2c 75be
000001f0: 0ebd ccbd f6eb 8dbe d760 b23c 9a54 a5bd
00000200: b81d debd abf0 123d 8c32 54be 5be0 97be
00000210: 3d89 7cbe 839a 10be a566 ecbd 59a2 40be
00000220: 23d5 94be 3312 d3bd 87f6 94be cbc1 96be
00000230: 3717 59be 22d1 d2bd a0e8 0bbe 71f1 3abe
00000240: 1208 83be c9e8 50be 38bf 24bd 8027 b9bd
00000250: a6cc 05be d3cc 92be feb6 34be 10cd 29be
00000260: 3f91 44be 3a4d 2dbe 08f8 31be 5864 c5bc
00000270: 6547 04be 42c2 02bd bbe1 bbbc 1241 3fbe
00000280: 1ce6 9bbc 99f8 6cbe bf7d 6cbd 57fd 4cbe
00000290: 402a 1abe 1908 b1be c7d4 11be 7a03 41be
000002a0: a151 22be d071 52be 14f0 04be 3878 6fbe
000002b0: f5fd 78be e363 77be 612e 17be f4da 32be
000002c0: 280f 4bbe e3a1 dcbd 3572 82bd 5dc6 bfbd
000002d0: d5fa 60be f7de 58be 712c 67be af2b 70be
000002e0: 66ca 96bd 677a 7ebe 4a46 47be 2dc9 80be
000002f0: f200 40be 7ddd f8bd 6242 1dbe 0faf 2cbe
00000300: 95e9 4ebe 018d 40bd a837 95be 7bd0 37be
00000310: 9d31 39bd dba0 09be 4f74 5bbe 500e 4cbe
00000320: cc7b dc3d befa 1ebe 803a 763d 3657 86be
00000330: de34 df3e ac9a 24be e101 36be 78ef 043e
00000340: f919 d6be ba41 9d3d 3fec 113d 8097 f5bd
00000350: cc5a 433e 0153 8bbe 2ce7 87be 1888 84be
00000360: 7ae3 d83e 3ff4 bfbd 5868 de3d 9e86 6d3e
00000370: 4215 a3bd d5fd aabd 3b78 eb3d 9542 943d
00000380: e807 d73e c869 89bd 5acf 84be cb3a 7bbd
00000390: 0773 93bc 33e1 b2bd b3cb 6a3e f62f 88be
000003a0: 8465 8e3e 4816 aabe c66c ecbe 3181 c8be
000003b0: cb7a 93be af65 ff3d 9862 893e e3bd e3bd
000003c0: a275 973e faee 88bc d524 88bd 117a 74be
000003d0: fdf1 263e 4ab0 2e3e f3db be3d 7745 093e
000003e0: b532 8bbe 276e 103e 27fc 87be da81 0b3e
000003f0: 2ed4 623e aaa6 2dbe 3a82 e6bd 1000 0dbe
0.14082848 0.10999213 0.20022959 0.19569609 0.05061205 0.07505065 0.08290031 0.078947686
0.082076296 -0.038563266 0.20322089 0.16203396 0.0015892592 0.09237214 0.06360934 0.10209081
0.08468692 -0.016351573 0.19865961 0.089977905 0.046648983 0.02038367 0.02017244 0.07391163
0.021481892 0.16860403 0.030212767 -0.12979251 0.19217081 -0.014415039 0.12884189 0.10140253
0.19273375 0.12874489 0.19686164 0.14762504 0.060466804 -0.01332336 0.08192753 0.10264234
-0.021622686 0.051951423 0.073345825 0.12089692 0.053034566 -0.03516922 0.16790989 -0.012895511
0.07248519 0.08885926 -0.082593106 0.1525632 0.048029486 0.097439766 0.074447624 0.1252992
0.039287046 0.11582603 0.19150682 0.24709326 0.02846883 0.09726511 0.050529446 0.045595527
-0.010090026 0.028478302 0.013454095 0.183454 -0.051757783 0.18925487 -0.014380863 0.20880234
-0.08156119 0.14844209 0.18867655 0.18015568 -0.04886366 0.13035245 0.023657471 0.14766563
-0.05667298 0.013976022 0.18060139 0.11275798 0.09556216 0.093153104 0.061350755 0.13882257
0.073248565 0.12696789 -0.13787673 0.09644588 0.094943136 -0.03390609 0.089290634 0.05145894
0.19459727 0.21655862 -0.028637033 -0.078993216 -0.13242947 -0.1558214 -0.275712 -0.30348343
-0.16734499 -0.28114554 -0.026447788 -0.29390243 -0.18484256 -0.23698784 -0.15430325 -0.06976807
-0.32726097 -0.19717276 0.010021042 -0.13037527 -0.10935425 -0.06976951 -0.21787563 -0.009652961
-0.13249743 -0.0927029 -0.27284375 -0.23942871 -0.09996997 -0.27719086 0.021774692 -0.08072777
-0.10845512 0.03587405 -0.20722407 -0.29663357 -0.24661727 -0.14121442 -0.115430154 -0.1881193
-0.2906886 -0.103062056 -0.29094335 -0.29444727 -0.21200262 -0.10293795 -0.13662958 -0.18256165
-0.25592095 -0.204013 -0.040221423 -0.09040737 -0.13066348 -0.28671893 -0.17647931 -0.16582131
-0.19196032 -0.16923991 -0.17379773 -0.0240957 -0.1291786 -0.03192354 -0.022934785 -0.18677166
-0.019030623 -0.23141707 -0.05773711 -0.20018516 -0.1505518 -0.3457649 -0.14241324 -0.18848982
-0.15851451 -0.20551229 -0.12982208 -0.23385704 -0.24315627 -0.24159198 -0.14763786 -0.17466336
-0.1983 -0.10773065 -0.063694395 -0.09364007 -0.21970685 -0.21178804 -0.22575547 -0.23454164
-0.07362823 -0.2485138 -0.19460407 -0.25153485 -0.1875036 -0.121516205 -0.15357354 -0.16863655
-0.20206292 -0.04700947 -0.29144025 -0.17950623 -0.04521333 -0.13440268 -0.21431087 -0.19927335
0.107658 -0.15525338 0.060114384 -0.26238412 0.43595022 -0.16074628 -0.17774154 0.12981975
-0.4181669 0.07678552 0.035625692 -0.11991787 0.19077605 -0.27211764 -0.26543558 -0.2588508
0.4236105 -0.09372758 0.10859746 0.23195884 -0.07963039 -0.08349196 0.114975415 0.07239262
0.4199822 -0.06709629 -0.25939447 -0.061335366 -0.017999185 -0.087343596 0.22929268 -0.2659909
0.27811825 -0.33220124 -0.46176738 -0.39161065 -0.2880462 0.124705665 0.26833034 -0.111202024
0.29581934 -0.016715515 -0.0664765 -0.2387469 0.16303249 0.17059436 0.09319296 0.13405405
-0.27187124 0.1410452 -0.26559564 0.13623753 0.22151253 -0.16958109 -0.112553075 -0.13769555
